captcha.onnx (onnx, 553869 bytes, 16 tensors)

cnn.4.weight f4 [32, 1, 3, 3]
00000000: 2342 70be cfc5 9d3e 9be9 91be 934b a93d
00000010: fd6f 46be 4379 a1be 8ff5 973c 29ff b93e
00000020: 7447 3a3e 9fb9 1a3e fc4b 683d 3956 09bd
00000030: c698 49be 3c16 763e 17ca 98bd d00b b7be
00000040: 9577 d5bd 3fe1 3abc 70c6 1abe 3492 773e
00000050: 6642 89be ec2b 31be 57d3 97be b14e a8bc
00000060: 629f 83be 6ec2 a43e ce02 2b3e 71dc 213d
00000070: 0815 3abe 66ca a63e eac6 193d 54e7 7c3d
00000080: 2ae4 ddbd a713 553e 5b05 443c f9d4 9a3e
00000090: e6ec 573d 2539 e83d 1ed7 f6ba 08f1 203e
000000a0: edb1 7bbe a861 a53d d484 a1be 0e08 433e
000000b0: 9286 afbe f766 8a3e ae69 48be e4c0 a73c
000000c0: 0fee 993d 03f5 a2be c093 f63c 8dfb 17be
000000d0: cc71 0b3e e748 6d3d f755 a13e 5685 b33e
000000e0: ced8 ba3e 9586 8f3e 2147 5c3d a2b9 62be
000000f0: 1293 7abd bc05 5dbe a5f7 3a3e d07d 5c3e
00000100: abfa 323e 13de 8fbe a682 cf3d e493 503e
00000110: c76e 1cbe d7db 823d 9970 debd 728d 09be
00000120: 5a2e 42be a2fe 86be 4216 323d a9f2 a73e
00000130: b8a7 66bc e586 023e 251c 333e 0ca6 07be
00000140: e8ca 49bc 6bdc 59be 1d95 8bbe fafd 85bd
00000150: 453b 3cbd 92ca 2d3e 754d 373c 5702 fdbd
00000160: 6ece 323c 2376 513e c70e 263e 1f49 13be
00000170: 18c2 193e 41cb 553e f287 33be edf3 953e
00000180: f680 7fbe 821c 9b3e 82c3 82be ff66 00be
00000190: 4068 7ebe 95c6 7fbe db1d 35bd 228d 393e
000001a0: 9224 97be 4dd7 6e3e c764 333e 2099 1fbd
000001b0: a66d 3b3e ccad 5e3d a9ca 853e 9ad8 b9bc
000001c0: ddaa 753e aa73 083e 7eca 00bd 6a7e 9fbe
000001d0: 73b0 c0bd d2ce 613e b596 0fbe 1c93 5cbd
000001e0: 10aa ed3c 0cdb 863d f6a2 6fbe 7498 8fbd
000001f0: 5782 5dbe c126 5bbe d944 00be 8162 813e
00000200: 3228 d4bd bff8 97be 7ea7 89be 1de5 dfbc
00000210: 0dda 11be 8c77 643e 6c38 4b3e 59f2 0bbe
00000220: 8820 6e3e 63e1 9c3e 3b7e 1e3d 0f2a 1f3d
00000230: 31d4 76be 2f13 723e b18f a13e 0110 8dbe
00000240: 96af 1d3e 1f06 c73d 9295 953d de7a 533e
00000250: 232d 84be a54e 753e 3514 c4bd a8dd a4be
00000260: f212 74be aed4 d43c 8015 953e 3f9c 273e
00000270: b489 d1bd 7129 453b 5b01 753e becc 92bd
00000280: 594f a33e 3b01 68be 1511 a9be 934f 833d
00000290: e4d8 b13d 87e6 ae3d b7ef 4cbe f527 093e
000002a0: ef29 453e 5c37 943e edb4 55be 9a22 97be
000002b0: d00f 8abe 4e0c 0cbe e8eb 1cbe 0141 063e
000002c0: 4b5a 743e 788b 10be 18b0 583e 434b 3abe
000002d0: 30af eb3d 2b79 953d 3c0b 6d3e f537 f73d
000002e0: a84c eebd a801 423e 5366 883e 1fd5 543e
000002f0: 1278 d3bd 2a0f a5be 449d 4c3e 5ce0 e5bd
00000300: 9d2a d13d 10fb 753d fc6c 713e e07d 87bd
00000310: 54d7 943d 9b43 48bd ac96 67bc f87b d43d
00000320: 1e82 3bbe bb97 85be 246d 9abe 7b09 893b
00000330: e278 ef3d 7f7c 28be 7264 c4bd 49f7 d2bd
00000340: 6f03 be3d e596 a93e 1257 a5be ce0d aabe
00000350: c6cf 083e 5243 a7bd d787 f93d 198b f1bc
00000360: 9cfb 4cbe 4909 01be b351 513e 284c 36be
00000370: 02b7 603e 672e 1dbe ecff 383e ee13 33be
00000380: acda 3c3e 2538 84bd fc6f 4cbe 7737 753e
00000390: e4de 133e 3c3a 003d a6c0 f5bd 3cd6 733e
000003a0: 692e e33d f364 0b3d 1fab 403e 21ac 87be
000003b0: a3ef 6d3e 577b afbe 9208 edbc e59d 63be
000003c0: 93ad 4cbc c352 b0be 9e62 4ebe aef2 fb3d
000003d0: 28a7 3a3e 336b 5a3e 97ca 8cbe 267f 843e
000003e0: fa87 a8be 7d4d f23d 8963 d2bc 5296 78be
000003f0: d882 963d b860 d53e e072 9c3e 53f3 f83d
-0.23462729 0.30814978 -0.2849854 0.08266368 -0.19378658 -0.31537828 0.018549709 0.36327484
0.1819132 0.15109871 0.05671309 -0.033529494 -0.19687185 0.24031919 -0.074604206 -0.357512
-0.10423199 -0.011406242 -0.1511476 0.24176866 -0.2680847 -0.17301911 -0.29653427 -0.020545335
-0.25707537 0.32179588 0.16700289 0.03951687 -0.18172085 0.32576293 0.037543215 0.06174405
-0.108345345 0.20808278 0.0119641675 0.3024061 0.05271616 0.113390245 -0.001883242 0.15716946
-0.24579592 0.08075267 -0.31546652 0.19046041 -0.34282357 0.2703168 -0.19571564 0.02047772
0.07516109 -0.31827554 0.03009975 -0.14842053 0.13617629 0.057930853 0.31510898 0.35062665
0.36493534 0.28032365 0.05377877 -0.22141126 -0.061175413 -0.21584219 0.18258531 0.21532369
0.17478435 -0.28099117 0.10132341 0.20368916 -0.15276633 0.063895874 -0.1086132 -0.13432863
-0.18962994 -0.26366144 0.043478258 0.32802323 -0.014078073 0.1274677 0.17491205 -0.13246936
-0.012316443 -0.21275489 -0.27262202 -0.06542583 -0.04595496 0.16971806 0.011187901 -0.12353962
0.0109134745 0.20455222 0.16216575 -0.14383362 0.15015447 0.20878316 -0.17532328 0.29287663
-0.24951538 0.30295187 -0.25539786 -0.1253929 -0.24844456 -0.24978097 -0.044217926 0.18120244
-0.29520088 0.23324318 0.17518912 -0.03896439 0.18303546 0.054364964 0.2613118 -0.022686291
0.2399096 0.13325372 -0.03144311 -0.31151134 -0.09408655 0.22051552 -0.14022334 -0.053851232
0.029011756 0.065847486 -0.23402008 -0.070115 -0.21631752 -0.21401502 -0.12526263 0.25270465
-0.10359229 -0.29681966 -0.268856 -0.02733093 -0.14243336 0.22311229 0.19845742 -0.13666667
0.23254597 0.30640706 0.0386946 0.03885847 -0.24104382 0.2364013 0.3155494 -0.27551273
0.15399012 0.097179644 0.07303919 0.20652339 -0.25815687 0.23955782 -0.09574167 -0.3220036
-0.23835352 0.02598032 0.29117966 0.16368197 -0.10231343 0.0030084515 0.23926298 -0.07167958
0.31896475 -0.2265672 -0.33020845 0.06411662 0.08683947 0.08540063 -0.20013319 0.13394149
0.19254278 0.28948486 -0.20869799 -0.29518586 -0.2696519 -0.13676569 -0.15324366 0.13110735
0.23862569 -0.14115703 0.21160924 -0.18192773 0.11508024 0.072985016 0.23148817 0.1207122
-0.11635715 0.18945944 0.26640567 0.20784424 -0.10325636 -0.32238132 0.19981867 -0.11224434
0.10213206 0.060053885 0.2357673 -0.066158056 0.07267633 -0.0488926 -0.014135044 0.10375208
-0.18311355 -0.26092324 -0.30161393 0.0041820384 0.116929784 -0.16453741 -0.09589471 -0.10301072
0.09277999 0.33122936 -0.32292992 -0.33213657 0.1336051 -0.08167137 0.121841125 -0.029485272
-0.20017856 -0.12601198 0.20441322 -0.17802489 0.21944812 -0.15349732 0.18066376 -0.17488071
0.18442792 -0.06456021 -0.19964594 0.2394694 0.14440495 0.031305537 -0.119996354 0.23812193
0.110928364 0.03403182 0.18815278 -0.2649851 0.23235945 -0.34273788 -0.02893475 -0.222282
-0.012492555 -0.34438142 -0.20154807 0.12302147 0.18227828 0.21329956 -0.27498314 0.25878257
-0.32916242 0.11831186 -0.025682228 -0.24276093 0.07349175 0.41675353 0.30556393 0.121557854

cnn.4.bias f4 [32]
00000000: 2552 bd3c f9fd 9dbd 01a7 603e 58dc a5be
00000010: 90e0 6c3e 1b2e 063d cda6 a93b 27d0 dc3b
00000020: 02c2 763d 3830 5bbe 8595 8d3d a50b 523d
00000030: b31b e03d 6635 233d 3957 893d 4b1b 98be
00000040: 5dc4 d93d 3868 723d e940 bdbd 658d b53c
00000050: 9fcb 903e d199 16be f27d 283c 3e6d 023e
00000060: d19c 97be f316 873e d651 2bbd e643 2fbe
00000070: c96b 683e 3030 693e 1913 923e d612 30be
0.023110459 -0.07714457 0.21938707 -0.3239467 0.23132539 0.032758813 0.005177355 0.006738681
0.060243614 -0.21405113 0.06913284 0.051280636 0.10942783 0.039845847 0.067060895 -0.29708323
0.106331564 0.059181422 -0.09240896 0.022162149 0.2828035 -0.14707114 0.010283934 0.12736985
-0.2961183 0.26384696 -0.04182609 -0.17115745 0.22697367 0.22772288 0.28530195 -0.17194685

cnn.9.weight f4 [64, 1, 3, 3]
00000000: 9517 e43a 77bc 9fbe c977 8e3e 013f f4bd
00000010: 8fa3 953e 5db8 523e 5c2a 933e 966b 6b3d
00000020: e08c 08bd 070b 693e 43f9 6abb b7c2 56be
00000030: 9c79 6cbe a4f9 94be 81fe 7b3d 81be 46be
00000040: cc38 813c f96c 933c 173f fabc 4263 a83e
00000050: 12b3 853d b793 e6bd 1561 e73d 30b8 c43b
00000060: d730 8c3d 58b6 373e ceb4 7ebe 0ac0 583d
00000070: a23e d3bd fc45 75be 043f 79be 1f67 82ba
00000080: 0083 64be c53e 8f3c 6e80 1a3e 0cdf 96be
00000090: 8090 953e 1767 153e 4716 6d3e 2767 b7bd
000000a0: 6be5 31be 64bd a3be d61b 03bd 4f78 8d3e
000000b0: 4e71 873e 24de cc3d ee8c 5fbe 77cb 9bbe
000000c0: eca1 3fbe 294e 92be 054e da3d 45b9 943e
000000d0: f711 b53e d412 acbd 6308 00be 0ade a53e
000000e0: 235c 5b3e 4f4b 943e dce4 383e e33f 6abe
000000f0: da1c 73be d077 913d 77ec 6f3e f5d4 64bd
00000100: 2ede c3bd a91c 0a3e 970b a5bd 3179 b43e
00000110: 1b9e 663e 4d41 78be ebff 943e 8be4 f9bc
00000120: d827 f0bd 82a3 343e 639e 093e 6162 a1be
00000130: dcb0 65be ef58 943e 31a8 27be 9d2b 753e
00000140: def3 eebd cfde 34be 3db9 88bd 8097 93be
00000150: 5f65 70bd 78c9 963d 922d 70be 5d0a b93d
00000160: 82aa 5a3e 129f aa3e a9aa e5bd 3ef9 e33d
00000170: 5754 4c3e a8fb 673e b79e a3be b5c1 213e
00000180: 9c34 b9bd 37c9 67be 1d3a af3d 2cae df3d
00000190: 21d6 8a3d dc6b 97be 8668 a1be 8178 6f3e
000001a0: 93f6 cd3d c54c 3e3d 6058 e43b f4d4 b43d
000001b0: 301c 88bd ffdc 723e 241c 6e3e 2330 20bd
000001c0: 9473 973e 3298 09be 4761 74be 1c01 02be
000001d0: 2689 073e 9a1c 793d 1474 a2be c7ec ee3c
000001e0: dce8 2ebe 8c53 19bd b7a1 603e 8826 a93d
000001f0: 5c0b 8d3e 1da9 493e cc95 6dbe 6b4f aebd
00000200: c2d9 9abc bf4a 3cbe 5f4a 913d 677f 5abe
00000210: 4a56 cb3c 75c2 34be 7c73 3f3e e502 e53d
00000220: f651 1f3d 4d3a 3b3e 60f8 a73e 3bb8 913d
00000230: 5b2d 0ebe 344e 17be ce73 8f3e 92b5 b63e
00000240: 21bc 9abe 72d5 163e 529c 87bd 5590 90be
00000250: 0f85 223e 7ab0 97be d21b 903e 4bba 183e
00000260: da0b 553e 1210 d23d afb8 9dbe 8e63 7a3e
00000270: 588b 7e3e 9cfa 203e 2a28 933e 5b53 493c
00000280: 21a9 843e cbeb a23e 939b 10bd bdce 0fbd
00000290: 854d 16be 1add c1bc def7 a7be 8d56 3abc
000002a0: bb60 36be 3bc6 80be edad f2bc 268a 0bbe
000002b0: 2cca a2bd 06fc 583e 19d5 633d c19a 86bb
000002c0: 58ce 273d 7d98 873e 2516 f63d 5191 8a3e
000002d0: 0803 533e 5687 89be 53b8 f6bd 1690 95bd
000002e0: 2dba 803e c5a7 b1be 7d04 e8bb 96e9 91be
000002f0: ed2d af3d d629 6cbd 1fd0 cd3c a226 0a3e
00000300: 0b15 413e 60d7 7abe 931c 50be 705f 453e
00000310: c590 4abe 4e60 91be 7931 a03e 109b 603e
00000320: 4190 f3bd b7a9 86bd c39f 993e ed47 ecbd
00000330: a295 2ebd a8bf 8fbe cfa9 04bb dae4 e33d
00000340: 9604 8dbc b1c1 2abe 9fd4 313d 35f9 2abe
00000350: 2ebb dbbd cd09 93bd a352 7ebd 93ae 973e
00000360: 89cd 02bd 00de 533d 1184 54be 2afe adbd
00000370: 84f8 c2bd cbd7 65be f4b7 683e 9aef 7c3c
00000380: 6fbd 98be 5741 69be 7120 6f3e 64c1 333e
00000390: 0772 2b3b 6e37 713c a5a1 12bd 9f65 3fbe
000003a0: 9aae 383e 9d9b 333e 46ba 5fbe d98f 4abe
000003b0: 8585 97be 685c cb3c 3bea 14be 97c6 d6bd
000003c0: 28a9 47be 0569 4bbe 3c51 1f3e 88ab 39be
000003d0: cf41 40be c3c0 f63d 3551 1f3d e070 4bbe
000003e0: 39ea f73d 3455 a1bb 1dbe b33d 3f6c 19be
000003f0: 54e4 513e e49c 6abe 41d2 61be b54c 0c3e
0.0017402048 -0.31198475 0.27825764 -0.119260795 0.29226348 0.20578142 0.28743255 0.05747565
-0.033337474 0.22758113 -0.0035854138 -0.20972715 -0.23093265 -0.2909671 0.06152201 -0.19408609
0.015774153 0.017996298 -0.030547662 0.32888228 0.065282956 -0.11258643 0.11297814 0.006003402
0.06845253 0.17940652 -0.24873659 0.052917518 -0.10314681 -0.23952478 -0.24340445 -0.0009948945
-0.22315598 0.017485986 0.15088055 -0.29467046 0.29211807 0.14590107 0.2315303 -0.089552216
-0.17372672 -0.3198043 -0.03200897 0.2763085 0.26453632 0.100033075 -0.21831104 -0.3042867
-0.18714112 -0.28575256 0.10659412 0.290476 0.3536527 -0.08402029 -0.125032 0.32395965
0.21421866 0.28963706 0.18056053 -0.22875933 -0.23741475 0.071029305 0.23430048 -0.055867154
-0.09563862 0.13487495 -0.08058851 0.35248712 0.2252125 -0.2424366 0.291015 -0.030504486
-0.117263496 0.17640498 0.13439326 -0.3152037 -0.22430748 0.289741 -0.16372754 0.23942418
-0.11667608 -0.1766312 -0.066759564 -0.28826523 -0.058690425 0.07362646 -0.23454884 0.0903518
0.21354106 0.33324486 -0.112141915 0.111315235 0.19954048 0.22654593 -0.31957027 0.1579655
-0.090432376 -0.22635351 0.08556006 0.109218925 0.06779123 -0.29574478 -0.31525058 0.23385812
0.10056796 0.046459932 0.006968543 0.0882968 -0.06646001 0.23717116 0.23252922 -0.039108407
0.29580367 -0.13436964 -0.23865233 -0.12695736 0.13235912 0.060818292 -0.31729186 0.029165639
-0.17081016 -0.037433192 0.2193669 0.082593024 0.2754773 0.19693418 -0.23201674 -0.085112415
-0.018902663 -0.18387888 0.07094263 -0.21337663 0.02482142 -0.17652304 0.18696398 0.11182193
0.038896523 0.18283959 0.32806683 0.07115217 -0.13884489 -0.14775926 0.2801804 0.35685402
-0.30221656 0.1472986 -0.066216126 -0.28235117 0.1587107 -0.29626828 0.28146225 0.14914815
0.20805302 0.102569714 -0.30804965 0.2445204 0.24857843 0.157206 0.2874158 0.01228794
0.25910285 0.3182052 -0.035304617 -0.03510927 -0.14678009 -0.023665 -0.32806295 -0.011373174
-0.17810337 -0.25151238 -0.02962395 -0.13626918 -0.079487175 0.2118989 0.055623148 -0.0041078036
0.04096827 0.26483527 0.120159425 0.27063993 0.20606625 -0.26861066 -0.12046876 -0.07302873
0.2514204 -0.3469831 -0.007080613 -0.28498524 0.085536815 -0.057657085 0.025123654 0.134913
0.18855684 -0.24496222 -0.203234 0.19274688 -0.19781788 -0.28393787 0.31287745 0.21934152
-0.118927486 -0.06575339 0.300047 -0.11537156 -0.04262317 -0.2807591 -0.0020242815 0.11127634
-0.0172141 -0.1667545 0.043415662 -0.16696627 -0.10729061 -0.07179604 -0.062090527 0.29625377
-0.031934295 0.051725388 -0.20753504 -0.084957436 -0.09520057 -0.224456 0.22726423 0.015437985
-0.29832026 -0.22778831 0.23352219 0.17554241 0.0026160495 0.014722688 -0.035798687 -0.18691109
0.18035355 0.1753983 -0.21848401 -0.19781436 -0.29594055 0.024824336 -0.14542477 -0.10487097
-0.19498122 -0.1986428 0.15558332 -0.1813184 -0.18775104 0.12048485 0.038895804 -0.19867277
0.12105221 -0.004923487 0.087764956 -0.14982699 0.20497257 -0.22911412 -0.22052862 0.13701136

cnn.9.bias f4 [64]
00000000: c97e a2be 25c6 d5bd f0b1 81b7 f001 dabd
00000010: e527 20bd ffbb c0bc 4bbf 3ebe 810f 85bd
00000020: b6db a6be 1ce1 86bd c92d 8e3e a246 443d
00000030: 3334 2bbe c476 553e d5da 9cbe e182 8f3e
00000040: 60a3 2cbe f47e e93d 395c 843e 8549 8bbd
00000050: ba07 19be 36f9 883e d9ef df3d 6882 eabd
00000060: 43d3 8f3d 7636 e53d 6aa7 81be 46b5 83be
00000070: 6e94 78be 6ba6 f43c a067 4b3e 2ad9 993d
00000080: 8205 16be b3d2 a2bc 6166 5dbe 3b8a 10be
00000090: 6469 a2be 0bd9 7f3e f614 92bd 87d7 b63d
000000a0: e6d6 893e ebd5 0cbe 7837 4c3e a846 5b3d
000000b0: b85e 8a3e 625d 853e 2f4f 803e 37ec 1fbe
000000c0: 86ba 8a3d 520c dcbd 22a0 4fbe 2773 88bd
000000d0: fe0f 9bbe e6a3 92be 20b1 5b3d eb60 1bbe
000000e0: 7eb9 803e 4433 53be bc0d 3bbe 8443 313e
000000f0: 9fb4 633d 8fa2 47be 798f 873e cc21 693e
-0.31737354 -0.10438184 -1.5460857e-05 -0.10644901 -0.039100546 -0.023527144 -0.1862766 -0.06497098
-0.325895 -0.06585905 0.27769306 0.047918923 -0.16719131 0.20846087 -0.30635706 0.2802954
-0.16859198 0.114011675 0.2585161 -0.06801132 -0.14944354 0.26752633 0.10934419 -0.11450654
0.07022717 0.11192028 -0.2532304 -0.25724238 -0.24275371 0.02986451 0.19863749 0.07512124
-0.14650539 -0.01987586 -0.21621086 -0.1411523 -0.31721032 0.24985139 -0.07132904 0.08927827
0.26921767 -0.13753478 0.19943035 0.05353418 0.2702539 0.26047808 0.25060412 -0.15617453
0.06773858 -0.107445374 -0.2027593 -0.066625886 -0.3028564 -0.2864067 0.053635716 -0.1517369
0.2514152 -0.20625025 -0.18266958 0.17310911 0.055592176 -0.19495605 0.26476648 0.22766799

cnn.14.weight f4 [128, 1, 3, 3]
00000000: 7536 0fbe 9d28 5e3e 1a12 f13c 466c 7c3e
00000010: 593e 603e 499a 8c3e 7e03 a33e 311c 88be
00000020: ae3a 8c3e 9476 cebd 7f14 843e 7975 c7bd
00000030: b7f8 8dbe 9b76 babd 68c6 c03d d1c9 263e
00000040: d191 813e 101c 9abd 81ef 063e c5c3 fe3d
00000050: c13f 9a3e f294 1bbe b275 83bd b420 0bbd
00000060: 26d2 633d 63f9 acbe 066f cc3d 25ae 243e
00000070: 8d4f a4bd 6af3 c4bd adeb be3d c561 363e
00000080: eca2 80bd 3831 23be 3246 353e 1688 843e
00000090: c00b d63c 1a92 0f3e 9507 223e 8e2b ce3d
000000a0: f2b9 6fbe d791 4fbe 4e6e 89be aa70 9e3e
000000b0: 46a6 763e 5cf6 313e 26e1 2cbe b2e4 8abe
000000c0: 7cc5 78be 1ef5 313d 44b2 b63d 5380 593e
000000d0: 053b 143e 903a 363e 0265 863d 905e 92be
000000e0: 7053 943d e775 a6bd d8b7 4a3e da1a 643e
000000f0: 55bc abbe c02a 243e 409c 553e 6a78 46be
00000100: dca6 833e 036a 55be 924f a43d 81cd 92be
00000110: 7fe3 ac3d 340e 72be 6282 da3d 317f 5d3e
00000120: 797a acbe 367e 2b3e 02a6 60be 4671 ccbd
00000130: 22ad 22be 0c18 14be 72f4 e4bd ef5c 0abe
00000140: 342b 953e fdec 5f3c c715 5d3e 8cb2 d6bd
00000150: 12b6 b53e e7df 81be 3ab3 99be 8220 12bd
00000160: ed48 303e de5e 323e 9bf3 3fbe bd71 1a3e
00000170: 2b42 483e cd7a 843e b91f 4b3e f20d 05be
00000180: 59da 743e 647f ac3d f411 06be 7599 47be
00000190: 36c9 dfbd e460 72be 3d10 8bbe 643a 8bbe
000001a0: f61a 03bd 0655 36be c95a a9be af17 4c3e
000001b0: 3ea7 f33d 28e4 3b3d 64b0 27bd c28c 873c
000001c0: 2987 123d 5f22 60be 8e56 af3e 60c5 bc3e
000001d0: a332 98bb 2c3b 7abe 2291 8a3e 4069 953e
000001e0: dfa2 223e 1631 84be f20d 2dbe d11f 0abe
000001f0: 8532 a3be 4242 8dbe 6d11 4c3e ae31 813e
00000200: eb9d 9e3e da5e 30be 5a2d 923e d8ea febd
00000210: bb5f 92be 885f 0fbe e3b3 a33e 1e2d 10be
00000220: c1f0 b4be 56c7 71bd 6432 eabd 00a1 5e3e
00000230: 0ccb a33e aaa6 983e 2021 debd eb56 783e
00000240: fdf6 993e 34f7 90be 0772 843e 60c9 e63c
00000250: 8166 f9bc 7f20 87be f902 4abe 6665 7e3c
00000260: 4225 96be ec29 51be 1afa b13e ea0e 983e
00000270: 06ba 23be 8992 123d 312c 583e 69a5 00be
00000280: 1044 64be cb04 173e f5dd 6b3e 8fcf a33e
00000290: 2bd8 20be 09f8 223e e15a cf3d ae35 833e
000002a0: 1f65 2ebe 8c37 39bd dc52 31bd 9c4e b0be
000002b0: 8090 e83d 9742 9ebe a088 77bc 8aa2 653e
000002c0: 6462 0d3e b9e8 783d 9628 b6bc 5655 cbbd
000002d0: fdef 5a3e 147e 7cbd 4d8b 8a3e 8f22 1d3e
000002e0: 6418 a13e 4bda 873d 1e07 acbd 80bb 9e3b
000002f0: 0fd9 68be f4b9 4ebe a2d1 813d a1e3 563e
00000300: 50d1 78bd 5523 403d 7192 02be 3478 3cbe
00000310: 06b3 9b3d 41f2 683e 0a81 953e d45c ac3d
00000320: 99c2 6d3e 301f b73d 4d30 7a3e 40b8 6c3e
00000330: 90ec 14be c75f 3bbe 3919 923e bf6f 21bd
00000340: d093 6abe 2e95 05be 185b f7bd 904b 7fbe
00000350: bc3b 09be 5fd8 1d3e 271a 6abe db14 9ebc
00000360: 0728 00be d8ff a8bd 082c 263e a619 45be
00000370: ded4 0c3e 4b60 33be 1b8b 0f3e fed9 99be
00000380: aaa0 143e 2a10 4e3e ca02 6fbe b4c3 e8bd
00000390: 1c3c 3fbe dc9d 9b3e e105 7ebe a2fa e7bd
000003a0: 45cb 5f3e 1906 d53d 1506 62bd da12 abbe
000003b0: f134 173e 8ef6 8d3e e4a5 373e e6f2 babe
000003c0: f777 4abe 1ee4 613e 7780 49be 671a 05be
000003d0: 2d3d 0ebd 9f44 9b3e d654 ffbd 3746 92be
000003e0: 244c 07bd 8470 0e3e 6238 b6bd cf9f 54bc
000003f0: eaef 6c3e 525d 8a3e 19c8 8d3e f8f5 dfbb
-0.13985617 0.2169518 0.029427577 0.24650678 0.21898784 0.2746146 0.31838602 -0.26584008
0.2738852 -0.10081211 0.25796887 -0.09739203 -0.27728817 -0.091046534 0.09412843 0.16287924
0.25306562 -0.07524884 0.13177301 0.12439684 0.30126765 -0.15193537 -0.06418933 -0.033966735
0.055620335 -0.33784017 0.099821135 0.16082056 -0.080229856 -0.0961674 0.09322295 0.17810734
-0.06281075 -0.15936744 0.17702559 0.25885075 0.02612865 0.14020577 0.15823205 0.10066901
-0.23410776 -0.20270477 -0.26841968 0.3094533 0.24086866 0.17379135 -0.16882762 -0.27127606
-0.24294084 0.043446653 0.0892072 0.21240358 0.14475639 0.17795777 0.065622345 -0.2858777
0.07242477 -0.08127957 0.19796693 0.22275868 -0.33542123 0.16031933 0.20860386 -0.19381872
0.2571324 -0.20841222 0.08022989 -0.28672412 0.08441829 -0.2363823 0.106694 0.21630551
-0.3368719 0.16747364 -0.21938327 -0.09982543 -0.15886357 -0.14462298 -0.11179437 -0.13512014
0.29134524 0.013667342 0.21590339 -0.10483274 0.3549047 -0.25366136 -0.30019552 -0.035675533
0.17215319 0.17419001 -0.18745272 0.1508245 0.19556491 0.2587494 0.1983632 -0.12993601
0.23911418 0.08422735 -0.13092786 -0.19492133 -0.1092705 -0.23669773 -0.27160826 -0.27192986
-0.032008134 -0.17805871 -0.33077076 0.1993091 0.11897133 0.045871884 -0.040939704 0.01654661
0.03577343 -0.21888112 0.34245723 0.36869335 -0.0046447082 -0.24436635 0.27063853 0.29181862
0.15882443 -0.258187 -0.16899851 -0.134887 -0.3187448 -0.27589613 0.19928522 0.25233215
0.30979857 -0.17223683 0.28550225 -0.12447137 -0.28588662 -0.14001286 0.3197318 -0.14079711
-0.3533993 -0.059027992 -0.114353925 0.21741104 0.3199085 0.29814655 -0.10846162 0.24251907
0.3007125 -0.283136 0.25868246 0.028172195 -0.030444385 -0.2639198 -0.19727696 0.015527105
-0.293253 -0.20426148 0.34761125 0.2969888 -0.15988931 0.035784278 0.21110608 -0.12563099
-0.22291589 0.14747922 0.23033889 0.31994292 -0.15707462 0.1591493 0.10124756 0.25626892
-0.17030762 -0.04521899 -0.04329191 -0.34434974 0.11355686 -0.3091018 -0.0151082575 0.22425285
0.13807064 0.060768817 -0.02223615 -0.09928386 0.21380611 -0.061643675 0.27059403 0.15345214
0.3146392 0.06633433 -0.08399795 0.004844129 -0.22739051 -0.20188123 0.063388124 0.20985271
-0.06074649 0.046908695 -0.12751175 -0.18405229 0.076025054 0.22748663 0.29200011 0.08416143
0.23218764 0.089414954 0.24432488 0.23117161 -0.14543366 -0.18298255 0.28534868 -0.03941321
-0.22907948 -0.13045189 -0.12077922 -0.24931169 -0.13401693 0.1541457 -0.22861539 -0.019297054
-0.12515269 -0.08251923 0.16227734 -0.19248065 0.13753077 -0.17517202 0.14017908 -0.30049127
0.14514413 0.20123354 -0.23340908 -0.113654524 -0.18675274 0.30393875 -0.2480693 -0.11327101
0.21854885 0.10401554 -0.05518158 -0.3341282 0.1476629 0.2772717 0.17934376 -0.36513442
-0.19772325 0.22059676 -0.19677912 -0.12998353 -0.03472631 0.3032579 -0.12467353 -0.28569195
-0.033031598 0.13910109 -0.08897473 -0.012977554 0.23138395 0.27024323 0.27691725 -0.0068347417

cnn.14.bias f4 [128]
00000000: 4c0c 1dbe eab6 653e 9082 50be 9c6a d8bd
00000010: 6104 923d 407e 9bbe a5ca 8a3e 90ee 9fbe
00000020: fe02 5f3e 96ba d6bc 90b2 8b3e 88ea 53be
00000030: ad05 3fbd 1dcf 543e 830a 6bbe 8d69 92be
00000040: c53f 553e 0f45 8ebe 977c 813e 3b82 363e
00000050: 6bf5 d23d fe77 e53d 5ae1 f2bc c58c a1be
00000060: b2a1 803d b122 003b bc43 43be 038f 853e
00000070: db16 1fbe bfb5 a7be 79a6 863e b90b 0e3e
00000080: c8bf 2f3b 3de6 97be be8d 66be 3109 d4bd
00000090: bb03 8f3d bf0a 34be cc68 9abe a379 733e
000000a0: 9245 11be ff34 a5bc 6944 94be a874 8ebe
000000b0: 0115 3fbe 1714 7c3e c642 a4be b65d 0d3e
000000c0: fe8b 923e f233 633e 1b8e eb3c fcbf 99be
000000d0: ef0a 933e cf71 90bd 159a ba3d 9074 d33d
000000e0: 575a 83be 51c2 e83b f0a0 303e 67a0 7cbe
000000f0: 0dfa 08be 41ff 8ebe f769 37bd b394 f63d
00000100: 74ab 883e 2d75 a9bd 01a1 8d3e 950c b53d
00000110: 0b9a a43d ca54 70be e412 acbc ff6d fb3d
00000120: fcbb 7bbe 81e2 8bbd 61f5 49be c856 273e
00000130: b846 863e 5910 9fbe 78f4 9a3c 30d2 13bd
00000140: 9fd3 3abe 34f0 94bc f930 50be fde9 943e
00000150: c641 843e 2e25 81bd 039e ea3d bb17 8e3e
00000160: e206 753d bd0b 9abe f6b1 633e eff9 65be
00000170: c676 173d a84d 763d be59 843e d17c 223e
00000180: 4f6b 16be 3928 0b3e 7565 71be c672 88bd
00000190: a54f 0bbe f715 9d3e a2a6 6b3e 13b9 713e
000001a0: 4546 2bbe c999 9c3d 993a 093e a4f3 093e
000001b0: c46a 763e 5eca 9cbe dd72 a63e 357c 9a3e
000001c0: 4ea5 a53e d991 953e 3bdd a0be 9bc3 e3bd
000001d0: 11eb 9bbd b45b 55be 73db 98bd dc32 8e3e
000001e0: 0439 66be c5ac f3bd 8034 a9be 2686 683e
000001f0: 00d0 4d3e 1127 a13d 23cc 11be 4257 91be
-0.15336722 0.22433057 -0.20362306 -0.10567209 0.071297415 -0.3036976 0.2710773 -0.31236696
0.21778485 -0.026212018 0.2728467 -0.20694935 -0.046636272 0.20782132 -0.22953229 -0.28596154
0.20825107 -0.27787063 0.25290367 0.17823116 0.10300716 0.11204527 -0.029648472 -0.3155271
0.06280841 0.0019551928 -0.19068807 0.26085672 -0.15536062 -0.3275585 0.26298884 0.1387166
0.0026817191 -0.29667845 -0.22515008 -0.103533156 0.069831334 -0.17582224 -0.3015808 0.2377687
-0.14186695 -0.020166872 -0.28958443 -0.27823377 -0.18660356 0.24617039 -0.32082194 0.13805279
0.2862243 0.22187784 0.028754285 -0.30029285 0.2871928 -0.07052957 0.0911142 0.10324967
-0.2565486 0.0071032424 0.17248893 -0.24670564 -0.13376637 -0.27929118 -0.04477879 0.12040081
0.26693308 -0.08274303 0.276619 0.088402905 0.08037194 -0.23469844 -0.021005102 0.122768395
-0.24583429 -0.068303116 -0.19722511 0.16341698 0.2622583 -0.3106716 0.0189154 -0.036089122
-0.1824479 -0.018180944 -0.20331182 0.2908477 0.2583143 -0.063059196 0.114559196 0.2775248
0.059821017 -0.3008708 0.22235855 -0.22458623 0.036978506 0.060132653 0.25849718 0.15867926
-0.14689372 0.13589562 -0.23573859 -0.06662516 -0.136046 0.3068082 0.23012784 0.23605756
-0.16726024 0.0764652 0.1340126 0.13471848 0.24064165 -0.30623144 0.3250951 0.30172887
0.3235268 0.29212835 -0.31418785 -0.11121293 -0.07613195 -0.20835763 -0.074637316 0.27773178
-0.22482687 -0.118981875 -0.33047867 0.22707424 0.20098877 0.078687795 -0.14238028 -0.28386885

fc.1.bias f4 [11]
00000000: cd87 d2bc 1753 fcbd 8893 3ebd fc3e 14be
00000010: 9217 dabd 24b6 40bb 7fa5 9cbd 0373 f3bb
00000020: 1a2d 0cbe 2240 bd3d 75b1 643d
-0.02569952 -0.12320536 -0.046527416 -0.14477152 -0.10649027 -0.002940544 -0.076487534 -0.007429482
-0.1368908 0.09240748 0.0558333

onnx::Conv_278 f4 [32, 3, 3, 3]
00000000: 1090 86be d1b8 b4be 1e87 a13e 52b1 c6be
00000010: f6ae 2fbe e37f 953e d0a5 933e 509a aabe
00000020: 2746 e2be 8a0b 91be 44bc e7be 8666 6fbe
00000030: 82f4 9dbe 90fe 293e 6d35 f3be ed11 debe
00000040: 30fc 7cbe 91f6 863e 5c9a 41be 383b d43d
00000050: e1c2 acbe 63e6 383e 5ac7 c13d 4481 7e3d
00000060: 31a7 c83d c9a5 22bd e96d 70bd b429 90be
00000070: 677b 3f3e b07e 94bc 4367 8dbe b07d 8cbe
00000080: 51d5 a03e a6ca 09bf fa31 a43e 8772 36bd
00000090: de91 c7be 21ed 1f3e e4ea 92be f53b b53e
000000a0: d6f3 8abe bc98 75be 8135 b63b e778 e6bd
000000b0: 3ea9 bebe a053 863e 5b76 afbe e2ec 95be
000000c0: 7bc4 97be 5a04 99be 260f 5b3d 218e 04be
000000d0: 0f24 843c 6c63 b1be 114f 9dbe dd2e a43d
000000e0: 128d 573e d973 ab3e 0a5d f0bc f38c ebbe
000000f0: 2d00 b33e 9b7d 9a3e bcdd 62be c750 103d
00000100: 05ab 3ebe 8db9 ccbe e8d3 acbe 5203 093f
00000110: 9a89 8ebe f552 80bd d3ff 0bbf 8d72 c9be
00000120: 2ee4 3ebe 1250 91be 6518 a5be f7ac 813e
00000130: 4e89 93be ed6a e1be 73a8 debe edfa f03e
00000140: 59e2 94be 8b9f 85be c73b 9f3e 6985 acbd
00000150: 2f1f 333f 7a56 743e 826b 2c3e e8fa dbbe
00000160: ea25 903e 0125 523e 4a30 1b3e a98c c1be
00000170: 6b8a 163f a717 9abd fb6b de3e f901 423c
00000180: 3ab0 84be ec52 d03e 6266 b7be 2264 3e3e
00000190: f501 6a3e 1767 3f3f 6353 493e 399e b53e
000001a0: ca0d d8be 881f ebbc 0ada 1fbf 6c87 f83e
000001b0: cbdd ccbe 0d53 7ebe bfbf e3bd afb1 bebe
000001c0: 12b1 cabd f553 6a3d 5486 d9be 55fa 563e
000001d0: 8f1b c7be 3e5f b6bc e3a4 b93d b266 80be
000001e0: 54f3 743d cdb4 25be d279 043e 3a0d c2be
000001f0: 1794 ecbd 18f5 15be f0ed 9ebd 0e34 23be
00000200: d1eb 6c3e 8ffb 8d3e b6ed 22be 7112 e5be
00000210: a88b 0abe 487d 963d 0883 58be 3ced d23e
00000220: ab13 8cbe 3337 85be 509d 573e 1c3a 46be
00000230: d826 31bd 6ce2 393e 623d 97bd dff7 04bf
00000240: 34e8 f8be 5fb2 2b3e 7ef1 f5be 7ddb e93e
00000250: fa6b cf3d cb44 5a3e fda9 c63e 31d6 ddbe
00000260: a049 03bf a8ae d1be a05f e7be cbb0 16bf
00000270: 63e3 88be d35b a2bd 91e0 30be fc44 3a3e
00000280: e264 fbbd 39b4 f93e dd8a 03bf adab 03bf
00000290: 6b65 3f3d 5338 223e 7b15 cc3d 4e62 edbd
000002a0: b828 2dbf 471c c8bd 9b2f 3f3e 6a3d 35bf
000002b0: 6664 253b 63d9 573e e1dc 0bbf 0d7e 243f
000002c0: 12c0 41bd 4086 95be b4fc 383e 39d0 03be
000002d0: 4d82 343f cca4 b7b9 6431 28bf 11cd 1c3e
000002e0: 4e13 06bf 1238 96be f4bd 063f 8d09 f9be
000002f0: 39ef 03bf 88d7 72bd ce57 2b3f 0ce6 12bf
00000300: 44ed 6f3f 0fdb 61be 293b 76bf 6e8d dd3e
00000310: cead 6cbf 12ce 86bf 4c12 7b3e 2f66 aabe
00000320: 3054 9ebf 6b69 b0bf 91b8 423f 7c44 973f
00000330: 7709 8e3f 5d90 b7be dfb3 663f a228 2c3f
00000340: 85ee 40bf d66d 243f 19d6 a33f 1ebc efbe
00000350: e8bf 9bbf 0647 953f 568f 1bbe bc43 7c3d
00000360: 8ec5 093f 3af3 983d bb1d f7be 5efe 71be
00000370: 6915 84bc ea4a f83e 57bc 923e 5c88 d43d
00000380: e16d 743e 11c2 c63e fa12 d5bd a039 5dbe
00000390: 3b91 fdbe 5ba7 d53e 519d 45bd 905b 2c3e
000003a0: 43b3 1fbf adc9 34bf 0983 01bf 9ca9 4abf
000003b0: 0513 2cbe e538 213f ad67 7fbe fc78 1fbf
000003c0: 52e3 cfbe 501a 4a3e 5e75 43bf 2e81 8cbf
000003d0: a204 793e 9d51 83bc de39 58bf 358b d03f
000003e0: 28c6 b03f 0653 273e b43b 163f 79c4 b3bf
000003f0: 4d2f d3be 3f45 eabc 9c37 363f 496c e2bf
-0.26281786 -0.35297254 0.315484 -0.3880716 -0.17156586 0.29199132 0.28837442 -0.33320856
-0.44194147 -0.28329116 -0.45260823 -0.23378953 -0.30850607 0.16601014 -0.47501698 -0.4337305
-0.24705577 0.2635999 -0.1890654 0.103628576 -0.3374243 0.18056636 0.094618514 0.062134996
0.09797514 -0.039708886 -0.05869857 -0.28156817 0.18699418 -0.018126816 -0.27617845 -0.27439642
0.31412748 -0.5382484 0.3206938 -0.044542816 -0.38978475 0.15617801 -0.28694832 0.35397306
-0.27139157 -0.23984045 0.0055605774 -0.11253529 -0.37238497 0.26235676 -0.34269986 -0.2928229
-0.2964209 -0.29886132 0.053481244 -0.12944843 0.016130475 -0.34646165 -0.30724385 0.08016751
0.21049908 0.33486822 -0.02934124 -0.46005973 0.34961072 0.30173954 -0.22154897 0.035233285
-0.18619926 -0.39985314 -0.33755422 0.5352069 -0.27839357 -0.06265823 -0.5468723 -0.39345208
-0.18641731 -0.283814 -0.32245174 0.25327274 -0.28815693 -0.4402689 -0.43487892 0.4706644
-0.2907894 -0.26098284 0.31100294 -0.084238835 0.6996946 0.23861113 0.16837886 -0.42964864
0.28153926 0.20521928 0.1515514 -0.37802628 0.5880496 -0.075240426 0.43441758 0.011841291
-0.259157 0.40688264 -0.358203 0.18592885 0.22852309 0.7476668 0.19660716 0.35472277
-0.4219802 -0.028701559 -0.62442076 0.4854082 -0.40012965 -0.24836369 -0.11120557 -0.37244937
-0.09897055 0.057208974 -0.42485297 0.20993932 -0.38888213 -0.022262212 0.09064653 -0.2507835
0.05980237 -0.16182251 0.12937096 -0.37900716 -0.115516834 -0.14644277 -0.07760227 -0.15937826
0.23136832 0.27730986 -0.15910992 -0.44740632 -0.13529837 0.07348114 -0.21143734 0.4119662
-0.27358755 -0.26018676 0.21056104 -0.19358104 -0.043249935 0.1815278 -0.07384755 -0.5194072
-0.48614657 0.16767262 -0.48035806 0.4567527 0.10128017 0.21315305 0.38801566 -0.43327478
-0.5128422 -0.40953565 -0.45190144 -0.58863515 -0.26735982 -0.0792767 -0.17273165 0.18190378
-0.12275101 0.4877031 -0.51383764 -0.5143383 0.04672758 0.15841798 0.099650346 -0.11591016
-0.67640257 -0.097710185 0.18670504 -0.70796835 0.0025236844 0.2107902 -0.5463391 0.6425484
-0.047302313 -0.29203987 0.18065149 -0.128724 0.70511323 -0.00035027263 -0.65700364 0.15312602
-0.52373207 -0.29339653 0.52633595 -0.486401 -0.515369 -0.059287578 0.66930854 -0.57382274
0.93721414 -0.2205622 -0.9618402 0.43271965 -0.92452705 -1.0531638 0.24518698 -0.33281085
-1.2369442 -1.3782171 0.76062876 1.1817775 1.1096638 -0.35852328 0.9011821 0.672495
-0.7536395 0.64230096 1.2799712 -0.4682321 -1.216794 1.16623 -0.15191397 0.061588034
0.5381707 0.07468267 -0.4826487 -0.2363219 -0.01612349 0.48494655 0.28659317 0.10377571
0.2387004 0.38819936 -0.1040401 -0.21604013 -0.49524865 0.41729245 -0.04824573 0.16831803
-0.62382907 -0.7062023 -0.5059057 -0.79165053 -0.1680413 0.6297744 -0.24941893 -0.6229398
-0.4060312 0.197366 -0.76350963 -1.0976923 0.24318174 -0.016030127 -0.844633 1.6292483
1.3810472 0.16340265 0.5868485 -1.4044334 -0.41247025 -0.028597472 0.71178603 -1.7689296

onnx::Conv_279 f4 [32]
00000000: f4c9 1540 39f3 1640 a848 0d40 472e 0bc0
00000010: d0b0 1b40 313e fd3f 001d 1a40 8e27 adbe
00000020: 91d5 0640 4b21 253e 96aa fa3f b67c cb3e
00000030: f326 333f be7f 0bc0 337c 10c0 4d15 1040
00000040: 40c2 2a3d b610 97bf af29 0e40 e359 0cc0
00000050: 86e1 983f a47b 0540 711d e6bf 43cd 553e
00000060: 1b32 b13f f5ee 943f 5b46 1d40 4e81 11c0
00000070: 156c 1a40 2c87 1840 69dc 0340 fd55 90bf
2.3404512 2.3585951 2.2075596 -2.1746995 2.4326668 1.9784604 2.40802 -0.3381924
2.106785 0.16125982 1.9583309 0.39743584 0.69981307 -2.1796718 -2.2575805 2.2513
0.041689157 -1.1801975 2.2212942 -2.1929862 1.1943824 2.0856714 -1.7977735 0.20879082
1.3843416 1.1635424 2.4574192 -2.2735171 2.4128468 2.3832502 2.0603278 -1.1276242

onnx::Conv_281 f4 [64, 32, 1, 1]
00000000: cce0 973e b855 b63c 4a6c e7be ebc7 073e
00000010: 4cfb 31bc ac9b 413d 060f 58bc a102 e0be
00000020: e050 2fbe 2bf9 2cbe 9b6a 473f 1ec7 c5be
00000030: aede e73e 6163 2a3f f652 443e e4a0 9bbe
00000040: 14e2 b2be b2f7 3cbf 91ed 153f c290 09bf
00000050: 6547 90be 0c9e f8be 8d12 bc3e 0c4d 20bf
00000060: 2a27 c83e 4f45 243e d22b 033e 0cb9 87be
00000070: 4efa 3b3f c538 01bf bd0d c23e d1e7 443e
00000080: 97d9 1ebe da38 91be f68a 463e 9320 eb3e
00000090: 0bee 8cbe a97e eebe 8b08 5cbe d531 52bf
000000a0: 5a84 453e 104d cf3e 7df9 dc3e 589c 4cbf
000000b0: 0f9c 8f3e c067 6abf aff0 1a3f 8e18 c6be
000000c0: 0946 1dbf f44f 0c3f 6ca7 29bf 96f0 86bf
000000d0: cebf 2c3f 5a94 4a3f 199e 17bf f2bb 63bf
000000e0: 6c0c 17bf 7fb8 66bf e4ed 6ebe bdf8 4a3f
000000f0: f9a5 923d 3bd9 663f 3904 53bf 837b d4be
00000100: d059 9fbe 41aa 1b3f 67c8 2dbf b375 5f3f
00000110: d39f 0fbd 1960 99bd a6f5 103e d0aa 113f
00000120: 16df e03e bc5f 3e3f 5ddb babe 226a 46be
00000130: edf5 3b3f 1424 e4be 72db bf3e adcd 343f
00000140: ca4b acbc 2448 21bf 4d6e ffbd c726 3abf
00000150: 51a3 3f3e 545a 34bf deeb c1bd ffd9 cfbe
00000160: 5120 233e 7023 dcbe 2cc9 a23d ed11 6d3f
00000170: 45d6 13bf 980a 25bf 3f7c f33e 7bdd 503e
00000180: d23d 73bc 5b0d a5be 3857 99be 4fe5 2b3f
00000190: e2e1 3c3f 8ab1 23bf bd11 7dbe 9856 0abf
000001a0: 582e 86be 7c39 dbbd 23f1 71be 606c c9be
000001b0: 72a9 f83e f52a 8139 9d18 f23e 81bf cfbe
000001c0: 7c1a 69bf b543 593e 8ed7 c33e d9b9 eebe
000001d0: 9142 0bbf 3ae7 29bf 93f1 ea3e 61d7 363e
000001e0: 8a93 293e a179 23be 62c4 0abe fa03 46bc
000001f0: 222a 2b3e 3bf2 30be b4bd 06bf dc88 523f
00000200: 4cfb 74bd fad3 a13e b677 17be bca2 a33e
00000210: 061f 05be 52c9 c63e 65d6 353e 094f abbd
00000220: 33f7 6dbe 794b 313f 62e6 b63d 367c f93e
00000230: 0ecb 55bd 4124 f73c eee9 cebe 0c2e 81be
00000240: 5bff cd3e c01b 8a3e 0e4e 4dbf edc6 b43e
00000250: bb61 323e b04e 26bd 1eea 02be 8438 583e
00000260: 4b3a 44be bcf0 0e3b 1631 303f 4ec9 8b3e
00000270: a9e8 bbbe 5cbc 353f 4146 833e f374 19bf
00000280: a8b8 763f e0b9 2f3f dd17 55bf 1c89 963f
00000290: 71bf 30bf eb90 893e a364 3f3f 4754 c23e
000002a0: 099f 84bc 3b5a 14be 71e6 1ebf 19a2 f23e
000002b0: eb83 40bd cc90 c53f 9a3c 02c0 214f 27bf
000002c0: 847f 303f b17a 8cbf cc60 a4bd 74bb 483e
000002d0: 9c45 3fbf 2cd6 493f 089c 78bf 591e 50be
000002e0: 4c34 47bf f0c5 56bf cb44 95bf c2dd 5cbf
000002f0: eb3c 59bd f1b7 22bf 82e5 1d3f d77e 8a3e
00000300: 2e16 d83e 5223 ebbe d8d9 493e fc2f 39ba
00000310: a8dc 2a3e 4924 b33e 27ba d53e c1c7 cf3c
00000320: 997d 663c ee5e 4fbe af68 26be c450 9c3e
00000330: 6209 95be 0bb0 3d3e 5f3c b73d 631e 6c3e
00000340: 024e d03e d972 d9be 7f00 41be 9ac7 e6be
00000350: c26c 273e c31a 80be e550 e53e d18e 9b3e
00000360: 5093 aa3e ed5a 25be 62b0 fcbe 8cc7 d13e
00000370: e3dd cb3e 4a7b 57be e745 e63e f983 cf3e
00000380: ee8c e63e 3ad3 3a3f 18e6 6ebf 3204 67bf
00000390: 4694 39be b0bc 05be 1eb8 0ebf 619c 00bf
000003a0: 44f1 2fbf 4f7b bc3e 2b32 033f a9d3 303f
000003b0: d890 063f 7e51 0bbf 1d3e 253e b7bb 3f3d
000003c0: 99db 963f 519b ba3d 6f18 b3be 1f5c 51bd
000003d0: 46d6 2b3d b26a 7d3e 36db a6be 34d7 4abf
000003e0: cec3 0dbf 8fec 513f b133 533e 236a 9bbe
000003f0: c262 9ebe 8ed2 9a3f d58b 73bf d5b5 bf3e
0.29663694 0.02225767 -0.45199805 0.13259856 -0.0108631365 0.0472676 -0.013187176 -0.43752006
-0.17120695 -0.16891925 0.7789704 -0.38628477 0.4528708 0.6655789 0.19172272 -0.30396187
-0.3493811 -0.73815453 0.5856562 -0.5373651 -0.2817947 -0.4855808 0.36732903 -0.62617564
0.3909238 0.16042064 0.12809685 -0.26508367 0.7342881 -0.5047725 0.37901106 0.19229056
-0.15512691 -0.28363687 0.19388947 0.4592329 -0.27525362 -0.4658101 -0.21487634 -0.8210729
0.1928877 0.40488482 0.43159094 -0.7992606 0.2804875 -0.9156456 0.60523504 -0.3869061
-0.6143499 0.548095 -0.6627109 -1.0542171 0.6748017 0.79132617 -0.5922561 -0.88958657
-0.5900333 -0.9012527 -0.23332936 0.79285794 0.07160563 0.9017522 -0.8242832 -0.41500482
-0.3112321 0.6080666 -0.67883915 0.8728897 -0.03506453 -0.07489032 0.14156207 0.56901264
0.439202 0.7436483 -0.36495486 -0.19376424 0.7342213 -0.44558775 0.3747211 0.70626336
-0.021032233 -0.630007 -0.1247221 -0.7271542 0.18714644 -0.7045033 -0.09468816 -0.40596005
0.15930296 -0.42995787 0.07948527 0.9260548 -0.57748824 -0.6446929 0.4755573 0.20396988
-0.014846282 -0.32236752 -0.29949355 0.6714677 0.7378217 -0.6394278 -0.24713798 -0.5403838
-0.26207232 -0.10704324 -0.23627143 -0.39340496 0.48566777 0.00024636803 0.47284403 -0.40575793
-0.91056037 0.21217234 0.38250393 -0.46626166 -0.5439845 -0.6636845 0.45887432 0.17855598
0.16560188 -0.15964366 -0.13551477 -0.012085909 0.16715291 -0.17279904 -0.52633214 0.8224008
-0.059809968 0.31607038 -0.1479176 0.31960094 -0.13000116 0.3882547 0.17757566 -0.08364684
-0.2323883 0.6925579 0.08930661 0.48727578 -0.0521956 0.030168654 -0.4041285 -0.25230443
0.40233883 0.26974297 -0.80197227 0.35308018 0.17420094 -0.040602386 -0.12784621 0.21115309
-0.19162862 0.002181097 0.688249 0.2730202 -0.36700943 0.7099054 0.25639537 -0.59944075
0.96375513 0.68643 -0.8323954 1.1760592 -0.69042116 0.26868376 0.74762934 0.37954924
-0.016189115 -0.14487545 -0.62070376 0.47389296 -0.047000807 1.5434813 -2.0349488 -0.65355116
0.68944573 -1.0974942 -0.08026275 0.19602758 -0.7471559 0.78842425 -0.97113085 -0.20324077
-0.77814174 -0.8389578 -1.1661619 -0.86275876 -0.05303661 -0.6356192 0.61678326 0.27049896
0.42204422 -0.45925385 0.19712007 -0.000706434 0.16685736 0.3498862 0.41743585 0.025363805
0.014068031 -0.20251057 -0.16250871 0.3053037 -0.2910872 0.18524186 0.08947062 0.23058467
0.40684515 -0.42470434 -0.18847845 -0.4507416 0.16350082 -0.25020418 0.4478828 0.30382398
0.33315516 -0.16147967 -0.4935332 0.40972555 0.39817724 -0.21043125 0.44975206 0.40530375
0.45029396 0.72978556 -0.93319845 -0.90240777 -0.18122968 -0.1306026 -0.5574969 -0.50238615
-0.6872752 0.36812827 0.51248425 0.6907297 0.52564764 -0.5442122 0.16136976 0.04680988
1.1785766 0.091116555 -0.3497958 -0.051113244 0.041952394 0.24747732 -0.3258912 -0.79234624
-0.553769 0.82001585 0.20625187 -0.30354413 -0.3093472 1.2095506 -0.9513524 0.37443414

onnx::Conv_282 f4 [64]
00000000: 9db0 b8bd 540f c7bf 73da 4b3f f9ac 713f
00000010: f17f 133e 9ce4 613e 4205 a4be 8287 c73e
00000020: a350 843e 0fc2 5dbf f400 93bd 895f a0bf
00000030: 480f 9c3e 8a78 1bbf c020 e3b9 40bb 343f
00000040: 15b1 463f d9e3 6a3f c284 3f3e 5949 933d
00000050: 102c 1e3f dc07 7a3e 045f 56bf 8fb2 493e
00000060: 1628 953f f797 49bc 53c0 943f 58c3 583f
00000070: b6a3 ddbd 7510 89bf aa0e 373e 42b2 61bf
00000080: 3542 6fbe f0ea 8bbe e548 8bbf 791e c4bf
00000090: 527f d6be c281 363f 8811 a4bf 008b e3b9
000000a0: b9a0 433f 3f77 bb3e b059 2bbf 7146 2ebf
000000b0: 828a 3b3f 6552 8dbe 7c70 613e c11a e9be
000000c0: 234b f0be 784d f1be b7a6 3abf 69c8 93bf
000000d0: 7d56 fdbe f1f8 85be e438 01bf 44a1 36bd
000000e0: 3158 8bbf 8a2b 33bf 0005 873f 7761 753f
000000f0: 2395 803e acfa 09bf de09 ad3d d72c be3e
-0.09018061 -1.5551553 0.796302 0.9440456 0.14404275 0.22059864 -0.3203526 0.38970572
0.2584277 -0.86624235 -0.07177916 -1.2529155 0.3048041 -0.60730803 -0.00043321215 0.7059822
0.77613956 0.9175392 0.18702987 0.07191724 0.61785984 0.2441706 -0.8373873 0.19697021
1.1652858 -0.012304298 1.1621193 0.8467307 -0.10822241 -1.0708147 0.17876688 -0.88162625
-0.233651 -0.2732768 -1.0881621 -1.53218 -0.41894013 0.71291745 -1.281785 -0.00043400377
0.7641712 0.36614415 -0.6693373 -0.68076235 0.7325822 -0.27601925 0.22015566 -0.45528224
-0.46932325 -0.47129416 -0.72910637 -1.1545535 -0.49480048 -0.2616649 -0.50477433 -0.04458739
-1.0886289 -0.6998831 1.0548401 0.95851845 0.25113782 -0.5389812 0.08449148 0.37143585

onnx::Conv_284 f4 [128, 64, 1, 1]
00000000: 7dc6 9f3e 38d6 2d3e f709 a83e d1cb 913e
00000010: aef3 b53e 066a d43e 9740 3bbe 923d 5c3d
00000020: 4379 36be d0d6 393e 82aa 493e 77dc 07be
00000030: 19c7 54be d28b 683d 24ee a63e 9d45 743e
00000040: 04d0 993d 9ab2 953e f563 99be e51f a0be
00000050: 9d1d a33e 246c 753e 86a2 a13e 5103 37be
00000060: 3c6d cabd ca8e eb3c a474 2d3d 0458 92be
00000070: 9fc1 d6bd 4339 e03d 9b9b fcbd 1b34 31be
00000080: f7b9 073f df20 16be 8400 943e 38fa 06bf
00000090: 2af5 613e c72c b63d 34c0 023f 5076 663e
000000a0: bf22 c93d e843 e23e a8fe 3a3d 6532 e73e
000000b0: 44e6 f5bd 16ac 543e 6c5f ab3e 4518 92be
000000c0: 32bf 4ebc a16c 99bd 8cc9 d3be 1c81 983e
000000d0: 9ce3 1ebe beea c2bd 4539 34be 8665 663e
000000e0: e53d e33d c9f9 b13e 67ee ac3e 42a3 b73e
000000f0: 7c6b fbbb 3fdc fb3c a020 da3c e5eb ef3e
00000100: adef 2e3d f3d6 d93e c605 d5bc 9b53 eabd
00000110: 1051 1a3e 74a9 e13d 6559 7e3e be8e 263e
00000120: 0841 113e 1846 e4be 0f0e 053f 37ab ac3e
00000130: 33bb 2fbf d108 df3c 2e26 b4be 74c2 25bf
00000140: 1a55 e8be 2f4d f33e 640b 4cbe f2d9 fb3e
00000150: ee04 c63e 3170 f4be f1c1 163f 1529 85be
00000160: 3db2 bd3e af7b 1abf f1eb 17be 2d89 6dbe
00000170: c17b af3e ffd3 28be e398 d53e a5c3 e4be
00000180: adab fa3c 18c4 c83e 0b04 333e 6329 2fbe
00000190: 8140 4d3e 5f27 78be 3659 28bd e32b bc3e
000001a0: 846d b03b 00a1 933e f373 b6bd 8ca4 c93d
000001b0: 97c1 d43e a2a9 b73d 63a2 ee3c f233 69bd
000001c0: 6ef8 acbe 997a 81be aa9d ebbc e8f1 783e
000001d0: 0736 80bb ae19 b53e 9ee5 f7be 23f7 883e
000001e0: 48bd 9e3e 7cdf e13e c06f 063e 458b d2be
000001f0: 7775 683e 0a4f 773e 9add 913e 6710 b23c
00000200: 2cce b6bd df22 e3bd 9de8 81be a695 143d
00000210: 77c1 ae3d 3efa 2bbe f1bd 59bc ff3a 943d
00000220: bb11 013f 2beb 3a3e eb79 efbd 2ded b63e
00000230: cde5 33be d60c 1abe 5277 31be 38ff 013c
00000240: b0a5 603e 6919 efbe d70c 853e 7ac4 ecbe
00000250: 1a97 8e3e 65a7 c73d 434b 06be f38f 95bd
00000260: 7a13 85be 3039 093e 90dc 32be 7a97 0d3f
00000270: 6e2d dbbe 5e5b ba3d 6a25 08be 3509 fcbd
00000280: 37ea 64be b70e e7be 3638 343d 2798 c53b
00000290: 53ac c2be f0a4 3cbe 2d70 f0bc e42e 8bbe
000002a0: 74a3 9cbe 6afb 3d3e 5560 b1be 388f 353d
000002b0: 83a7 ff3d 7539 ccbd 8e1f f93d b0de 00bf
000002c0: e47d 0a3e 7452 5ebe 0f1a c8be 328e 723e
000002d0: c79d 963c 9c5e ddbd bac6 a2bd e0b1 0b3e
000002e0: e429 b73e 015a e33e d872 1cbd 9693 fc3e
000002f0: 498c 133e f03d 0ebe 6d24 02be bec2 02bf
00000300: 29b8 223e 144d 983e ab8a a3bc 8946 043d
00000310: 6564 02bf bb86 ad39 b05f 09be e9d9 2dbf
00000320: 1d79 023f 0e9c 883e 5fb5 b8bd 5a87 ab3e
00000330: 7cee 853e a7a5 95bd fa1e 98be af0a 073e
00000340: cc8a 973d 5684 27be 26b3 09bd 395c 4bbe
00000350: f793 9dbe 7558 353a 5117 02bf 534e 623d
00000360: f212 d73e 10bf 0dbe 7807 e3bd 0386 57be
00000370: fa2f bfbd 9cfa 113e 6356 af3d 720f f73e
00000380: 460d e6bd 3440 0fbe 72e5 e63d 2a52 0ebc
00000390: 020f 46be fab6 85bd 02b8 543d f197 0e3c
000003a0: 7ab3 8b3d 00f9 c2be fc02 503d f5d4 b93d
000003b0: cf04 303e 5584 c53e 4047 0dbe 242d 4cbe
000003c0: cea5 83be 692a adbe 867b 263e 14f2 093f
000003d0: 9919 94bc 432d 353e f838 013f 4241 bcbe
000003e0: 2cf5 8f3e 1414 4dbe 6a26 8fbe d807 a23e
000003f0: cf5a b33d 035d 82be 0b6c 8bbe 8e10 253d
0.31206122 0.16976249 0.32820103 0.28475812 0.35537475 0.4148714 -0.18286358 0.053769656
-0.17819695 0.1814835 0.1969395 -0.13267694 -0.20779075 0.056773968 0.32603562 0.2385468
0.07510379 0.29237825 -0.29959074 -0.31274334 0.3185853 0.23967034 0.31569308 -0.17872359
-0.09884116 0.02875461 0.042347565 -0.28582776 -0.10486149 0.10948422 -0.12334367 -0.17305033
0.53018135 -0.14660977 0.28906643 -0.52725554 0.22066179 0.08895259 0.5107453 0.2250607
0.098210804 0.44192433 0.045653015 0.45155635 -0.1200681 0.2076877 0.3347124 -0.2853414
-0.012618827 -0.074914224 -0.41364706 0.29786003 -0.15516514 -0.0951743 -0.17599972 0.22499666
0.1109579 0.34760883 0.33775637 0.35866743 -0.0076727252 0.03074467 0.026626885 0.4685966
0.04270904 0.42546806 -0.02600373 -0.11441728 0.15069985 0.11018649 0.24838789 0.1626539
0.14184964 -0.44584727 0.51974577 0.33724377 -0.6864502 0.027225884 -0.3518538 -0.64749837
-0.45377427 0.47519824 -0.1992622 0.49189717 0.38675636 -0.47741845 0.5888968 -0.26007906
0.37050048 -0.60344976 -0.14836098 -0.2319686 0.34274104 -0.1648712 0.41718206 -0.44680515
0.03059944 0.39212108 0.17482011 -0.17105632 0.20044138 -0.24233769 -0.041100703 0.36752233
0.005384149 0.2883377 -0.08908834 0.09845838 0.41553947 0.08967902 0.029130166 -0.056934305
-0.33783287 -0.25288847 -0.028761704 0.2431103 -0.0039126906 0.35371155 -0.48417372 0.2675105
0.31003785 0.44115818 0.13128567 -0.4112188 0.2270106 0.24151245 0.2848938 0.021736337
-0.08926043 -0.110906355 -0.25372782 0.03627553 0.08532994 -0.16794679 -0.0132899145 0.07237815
0.5041768 0.18253772 -0.11693176 0.35727826 -0.17568131 -0.15043959 -0.17330673 0.007934384
0.21938205 -0.46699074 0.2598636 -0.4624365 0.27849656 0.09748725 -0.13114648 -0.07302847
-0.25991422 0.13400722 -0.1746695 0.5530926 -0.42808098 0.09099458 -0.13295522 -0.123064436
-0.22354971 -0.45128414 0.04399892 0.006030101 -0.38022098 -0.18422294 -0.029350365 -0.27184212
-0.30593455 0.18552938 -0.34643808 0.044326037 0.12483122 -0.099718966 0.12164222 -0.50339794
0.13524586 -0.21711141 -0.3908238 0.23687056 0.018385781 -0.10809061 -0.0794806 0.13642073
0.35774148 0.44404605 -0.03819546 0.4933135 0.14408983 -0.13890815 -0.12709208 -0.51078403
0.15890564 0.29746306 -0.019963583 0.03229383 -0.5093444 0.00033097513 -0.13415408 -0.6791063
0.50966054 0.2668156 -0.09018969 0.33501703 0.26158512 -0.07306986 -0.29711133 0.13187669
0.0739952 -0.16359076 -0.033618115 -0.19859399 -0.3077695 0.0006917783 -0.5081683 0.055250477
0.42006642 -0.13842416 -0.11085409 -0.21047215 -0.09335323 0.14255756 0.08561399 0.4825397
-0.112330005 -0.13989335 0.11274232 -0.008686582 -0.19341663 -0.06529041 0.051933296 0.008703218
0.06821342 -0.38080597 0.050784096 0.090738215 0.17189334 0.38577524 -0.13796711 -0.19939095
-0.25712436 -0.3382142 0.16258058 0.53885007 -0.018078612 0.17693047 0.5047755 -0.36768538
0.2811674 -0.2002719 -0.27958995 0.3164661 0.08757555 -0.25461587 -0.27230868 0.04029899

onnx::Conv_285 f4 [128]
00000000: 1bb4 1ebf 1510 bcbe 0c85 a33c fbe2 02bf
00000010: a254 85bf f482 91bf 2aea c63e a949 33bf
00000020: 70fa 8cbe 8742 453e 049c 473e 1c1b 47be
00000030: 5b2e 673f 9f98 1e3f 8e77 8bbe a81b 473f
00000040: 1a58 95be 9f86 9ebf 63ef 9bbf 98a2 56bf
00000050: d063 8d3f 47c3 773f bd52 433f 2ed0 1040
00000060: 0019 afbf 2b0b cdbe c32e 063f 3a64 bcbf
00000070: 6f68 cf3f c1bb c73e f5aa d3bf a27d 0f3f
00000080: fbcc 0e3f 5c62 b23f d269 22be 9746 24bf
00000090: fb8e 9b3e 5d2d 99be 3413 e93e b893 963f
000000a0: acdd 053f 5612 763f 305f 2a3c d323 963e
000000b0: 56c4 b2be dd7b ac3d e7e3 c63f ff25 c8be
000000c0: 6e31 c3bd c317 02c0 273c 793f 376f abbd
000000d0: 6ffe 8abe f88f cebe dc54 733f 69b8 763f
000000e0: 3d6d ce3e 4f9d b33f 7691 64bf 135e f03f
000000f0: 4a45 0f3f d74d f3be f9f7 953f e646 c43f
00000100: 3759 c53e 4cd9 8f3e 0cfa 863f 87ac 143f
00000110: 031d 183f 5a90 2d3f 9575 513f 4625 e5be
00000120: c7d3 80bf b0b4 d2bf fd66 db3f 4682 e4bd
00000130: 9f86 313f 332a 173e b1b4 0cbf 4a11 f33f
00000140: 0a9d 1b3e e5b2 3e3f a2a4 5abf 9b1c fa3e
00000150: 6631 343f 534a 233f ee9f 143f e760 8c3e
00000160: 9cf3 c93e aa89 24bf 2391 7f3e 971b 373f
00000170: dad0 dfbb 2fb7 0340 c662 f13f c7a3 d73f
00000180: 7cef 18bf eede 20c0 6147 d93e 1a25 2abf
00000190: 8c2c af3f 1757 0fbf 0dde a63f 848e b5be
000001a0: f319 8e3f 40bc 8cbf 2c25 fbbc ea71 57be
000001b0: 4550 5bbf e1db e03f d946 533f 446e 653f
000001c0: 70df 0dbe 92d3 4a3f 0ba9 983f 7fb0 71bf
000001d0: 4a03 cebd f945 fabf aa55 55bf 324f 84bf
000001e0: c48c 1e3f 3c6d c93e 4327 623d e9a6 f83e
000001f0: 6bd7 903e 4b1a bf3e 0741 cabf 5bc7 57bf
-0.6199357 -0.3673102 0.019960903 -0.51127595 -1.0416453 -1.1368089 0.38850528 -0.7003427
-0.2753482 0.1926366 0.19493109 -0.19443935 0.9030511 0.6195163 -0.2723965 0.77776575
-0.2916878 -1.2384833 -1.218243 -0.8384185 1.1046085 0.96782345 0.76298124 2.2627063
-1.3679504 -0.40047583 0.524151 -1.4718087 1.6203746 0.39010432 -1.6536547 0.56051075
0.55781525 1.3936267 -0.1586068 -0.6417021 0.30382523 -0.29917422 0.45522463 1.176383
0.5229137 0.9612173 0.010398671 0.29324207 -0.34915417 0.084220625 1.55383 -0.3909149
-0.09530912 -2.0327003 0.9735741 -0.08370822 -0.27147242 -0.40344214 0.9505136 0.9637514
0.40317717 1.4032382 -0.89284456 1.8778709 0.559651 -0.47520325 1.17163 1.5334136
0.38544628 0.28095472 1.0545058 0.58075756 0.5941927 0.6779839 0.8182004 -0.44755
-1.0064629 -1.6461391 1.7140805 -0.1115766 0.6934604 0.14762191 -0.54963213 1.8989651
0.15196624 0.7449172 -0.8540746 0.4884995 0.70387876 0.63785285 0.58056533 0.2741768
0.39443672 -0.6427256 0.24957709 0.71526474 -0.006830317 2.0580556 1.8858268 1.6846856
-0.59740424 -2.5136065 0.4243727 -0.6646286 1.368547 -0.55992264 1.3036515 -0.35460293
1.1101669 -1.0994949 -0.030657373 -0.21039549 -0.85669357 1.7567102 0.8252998 0.89621377
-0.13854766 0.7922908 1.1926588 -0.94409937 -0.10059221 -1.9552604 -0.8333384 -1.0336668
0.6193354 0.39341152 0.055213224 0.48564842 0.2828935 0.37324747 -1.5801095 -0.8428857
