captcha.onnx (onnx, 535434 bytes, 8 tensors)

block1.0.weight f4 [16, 4, 3, 3]
0.030127214 0.072152995 0.04465016 0.19100904 -0.070083834 -0.16326916 0.075892605 -0.044871237
-0.07449185 -0.023671383 0.011111341 -0.040813 -0.013993872 0.006056748 -0.09672042 -0.059350707
0.028679112 0.16252854 -0.03801973 -0.16923773 -0.18469623 -0.08172922 -0.077989385 0.089653976
0.036652446 -0.06865593 -0.14537549 -0.07539172 0.23404878 0.17848776 -0.13578516 0.10677862
0.24221104 -0.33582157 0.2697376 0.18409304 -0.16560325 0.087767355 0.04628559 -0.2478917
0.05728249 -0.16481544 0.03880713 0.03654113 0.101777405 -0.20527801 0.044517513 -0.16180088
-0.03732253 -0.15204129 0.04220414 -0.0772276 -0.1278629 0.14920488 -0.24714422 0.06400398
-0.08985084 0.06552469 -0.06228937 -0.21289022 0.027255721 -0.1050845 0.022697192 0.06712753
-0.010194292 -0.07053249 0.15957905 0.21764079 0.23188435 0.26423523 0.24967402 0.17703857
-0.1723495 -0.071423635 -0.19463648 0.16011447 0.048911966 0.1521789 -0.0068637794 0.12632696
-0.081273906 -0.007902095 0.07292544 0.0677906 0.12197372 0.07166371 0.044323806 0.09118614
-0.19161047 0.14305466 -0.09051733 0.13215376 -0.0040025036 0.07106115 0.18137495 0.128562
-0.13587707 -0.084002405 -0.13419542 -0.06456751 0.05992394 0.0042072283 -0.28917098 -0.13243593
-0.21288991 -0.15741475 -0.10595392 -0.028420147 -0.15139912 0.08785364 -0.11087476 -0.14639167
-0.15444759 -0.0983718 -0.0071950518 -0.17569977 0.11515067 0.02288841 -0.026746225 0.18610457
-0.17051627 0.035358272 0.1275847 -0.2251612 0.06629266 -0.079501234 -0.05494975 -0.08724773
0.06833559 0.043069914 -0.13975137 -0.09295509 0.011374844 -0.06755015 0.056814447 0.112873115
0.039397422 -0.08151125 0.19423278 0.19729155 0.19067879 0.30039 0.11920067 0.23419799
-0.05691497 0.16463993 -0.010395261 -0.0053363647 -0.044201657 0.11158031 0.04362947 -0.060337033
-0.08744936 0.019753287 -0.007444493 0.13570999 -0.055325206 -0.15494114 0.0071143634 -0.1331196
0.060641307 0.02946814 0.09562999 -0.00089569006 0.02620209 0.019759312 0.027599681 -0.09217474
-0.00351112 -0.13903876 0.052078728 0.032168306 -0.07959301 0.030252049 0.06843035 0.21240883
-0.08936745 -0.09665491 0.15351236 0.21374263 -0.04268883 0.089866884 0.025272839 -0.11540268
-0.018926721 -0.17141257 0.04019101 0.044632502 0.08577478 -0.038865313 -0.20227277 -0.06138364
0.15901712 0.13966268 0.036481798 -0.01755471 -0.03798742 -0.14890519 0.13034652 -0.06216111
0.04077707 -0.021464137 -0.17335671 -0.11119795 0.08368344 -0.0442985 -0.094266236 -0.09077996
0.24920617 0.27544102 -0.383409 0.22515282 0.26387018 -0.33174226 0.013707574 0.25518122
0.108749814 0.047538567 0.052313358 0.10184489 -0.035830587 -0.049834188 -0.0045059193 0.11971956
0.08036624 0.05861274 -0.010925208 0.04834929 0.0050954437 -0.017267184 0.14275923 0.05899146
-0.03973381 -0.096088916 -0.1830677 0.079758406 -0.062248953 -0.014090572 -0.10143741 0.17510818
-0.012091847 -0.044617396 -0.20054515 -0.001882338 0.04253934 0.186501 -0.042658094 0.18980685
-0.07209045 0.11625514 0.19266453 0.18901998 0.11575248 0.13194124 0.11233393 -0.057562016
00000000: 59cd f63c f3c4 933d 16e3 363d e097 433e
00000010: 1d88 8fbd 0830 27be 956d 9b3d e7ca 37bd
00000020: 2f8f 98bd 7dea c1bc 580c 363c 882b 27bd
00000030: 8e46 65bc af77 c63b 5b15 c6bd ba19 73bd
00000040: 75f0 ea3c e26d 263e 94ba 1bbd a84c 2dbe
00000050: 0221 3dbe a661 a7bd e6b8 9fbd 819c b73d
00000060: e020 163d 7b9b 8cbd 50dd 14be f966 9abd
00000070: 7caa 6f3e 7fc5 363e 440b 0bbe c0ae da3d
00000080: 2c06 783e cef0 abbe 0c1b 8a3e e382 3c3e
00000090: e693 29be 5fbf b33d f595 3d3d 52d7 7dbe
000000a0: 0ba1 6a3d 61c5 28be 3af4 1e3d 27ac 153d
000000b0: ac70 d03d 6634 52be ff57 363d 21af 25be
000000c0: 82df 18bd b6b0 1bbe 40de 2c3d 8129 9ebd
000000d0: 7eee 02be 2ac9 183e 6013 7dbe 8514 833d
000000e0: b803 b8bd cf31 863d 2323 7fbd e5ff 59be
000000f0: 6447 df3c 8b36 d7bd 76ef b93c 297a 893d
00000100: f605 27bc 5773 90bd b168 233e 3add 5e3e
00000110: 1773 6d3e d749 873e 8caa 7f3e 9949 353e
00000120: 637c 30be 8e46 92bd c94e 47be 0cf5 233e
00000130: ea57 483d c9d4 1b3e 8ee9 e0bb db5b 013e
00000140: ef72 a6bd ca77 01bc ef59 953d ccd5 8a3d
00000150: 5ccd f93d 6cc4 923d e18c 353d cdbf ba3d
00000160: 8935 44be ec7c 123e 2661 b9bd 5153 073e
00000170: 6f27 83bb 8288 913d 5bba 393e c2a5 033e
00000180: 5c23 0bbe 7409 acbd 866a 09be f83b 84bd
00000190: ce72 753d cadc 893b 380e 94be 499d 07be
000001a0: d0ff 59be 5531 21be 5efe d8bd 5ed1 e8bc
000001b0: 5f08 1bbe 9cec b33d 4e12 e3bd b3e7 15be
000001c0: 8227 1ebe 2777 c9bd 78c4 ebbb a4ea 33be
000001d0: 1dd4 eb3d 7a80 bb3c e61a dbbc 3292 3e3e
000001e0: d19b 2ebe d6d3 103d 90a5 023e a890 66be
000001f0: 72c4 873d 8bd1 a2bd fd12 61bd f0ae b2bd
00000200: 88f3 8b3d 146a 303d fc1a 0fbe 3d5f bebd
00000210: 8e5d 3a3c bc57 8abd 44b6 683d 052a e73d
00000220: 315f 213d 5fef a6bd f5e4 463e cc06 4a3e
00000230: 4d41 433e b8cc 993e 7b1f f43d 99d1 6f3e
00000240: ac1f 69bd 5f97 283e e350 2abc acdc aebb
00000250: cc0c 35bd 3884 e43d d1b4 323d f723 77bd
00000260: a618 b3bd a5d1 a13c eff0 f3bb 8ff7 0a3e
00000270: af9c 62bd e4a8 1ebe 9b1f e93b 8150 08be
00000280: 0563 783d 2b67 f13c a8d9 c33d becc 6aba
00000290: c4a5 d63c 48de a13c ba18 e23c 1cc6 bcbd
000002a0: d21a 66bb 2d60 0ebe 8150 553d eac2 033d
000002b0: a901 a3bd 25d3 f73c 3625 8c3d b381 593e
000002c0: 4806 b7bd 02f3 c5bd 5832 1d3e 59df 5a3e
000002d0: 7cda 2ebd 210c b83d fc08 cf3c 3e58 ecbd
000002e0: 360c 9bbc c786 2fbe 549f 243d 92d0 363d
000002f0: b0aa af3d 3c31 1fbd 9820 4fbe 696d 7bbd
00000300: 62d5 223e bc03 0f3e f06d 153d e5ce 8fbc
00000310: b298 1bbd 9a7a 18be 8f79 053e a69c 7ebd
00000320: db05 273d 8fd5 afbc 6c84 31be c0bb e3bd
00000330: 3962 ab3d 5872 35bd a80e c1bd d8ea b9bd
00000340: e72f 7f3e 9b06 8d3e 2f4e c4be 768e 663e
00000350: fe19 873e 1fda a9be bc95 603c 1da7 823e
00000360: 39b8 de3d cdb7 423d 8846 563d 0e94 d03d
00000370: 18c3 12bd ef1e 4cbd 64a6 93bb 872f f53d
00000380: 0e97 a43d ea13 703d a5ff 32bc e809 463d
00000390: aef7 a63b e973 8dbc 7a2f 123e 07a1 713d
000003a0: ebbf 22bd 44ca c4bd 1976 3bbe 6058 a33d
000003b0: c2f8 7ebd 24dc 66bc 6bbe cfbd 8f4f 333e
000003c0: e21c 46bc bbc0 36bd b55b 4dbe c8b8 f6ba
000003d0: bb3d 2e3d 1efa 3e3e 41ba 2ebd ba5c 423e
000003e0: 28a4 93bd 2d17 ee3d da49 453e 748e 413e
000003f0: a30f ed3d 9b1b 073e 550f e63d 26c6 6bbd

block1.0.bias f4 [16]
-0.011817663 0.040250592 0.29317808 0.055028845 0.063377075 -0.074723 -0.055138387 -0.03433949
-0.09041523 -0.05526267 -0.1777864 0.1327205 -0.08182128 -0.14941014 -0.06736125 -0.13134347
00000000: df9e 41bc cedd 243d 701b 963e ed65 613d
00000010: d7cb 813d 5f08 99bd cad8 61bd 91a7 0cbd
00000020: 9f2b b9bd 1c5b 62bd a30d 36be e2e7 073e
00000030: ea91 a7bd f9fe 18be b2f4 89bd e77e 06be

block2.0.weight f4 [16, 16, 3, 3]
0.18013138 0.179836 -0.020178938 -0.17897868 0.014697234 -0.013485571 -0.047199387 -0.07990191
0.16152048 0.100941576 0.03642317 -0.01710736 -0.17869559 -0.082349524 -0.055554684 0.0025131106
0.06502164 -0.02043674 -0.047086652 -0.07979708 -0.048212178 -0.059931513 -0.046215836 -0.07346622
0.055187706 0.047326427 -0.0311423 0.06861137 -0.0047130147 0.106339514 -0.20592137 -0.06416344
-0.014348489 -0.035774436 0.0035545658 0.13033174 0.10712228 0.10012803 0.074214004 -0.13203652
-0.07240216 -0.021708945 -0.007863207 0.046630725 0.049864806 0.20358486 0.055585276 -0.0889188
0.057785083 0.10362731 0.099096484 -0.121561356 -0.054708544 0.13845254 0.09154657 0.0046650576
-0.06835015 -0.073783815 -0.019655801 -0.012195223 0.06872133 0.06698838 0.10885727 0.10671581
0.12098877 0.019401124 -0.18946457 -0.04144012 0.009733492 -0.13312574 0.07197509 0.069339156
0.04091728 0.048193026 -0.027551297 -0.22324449 -0.13439041 0.022973916 -0.123448834 -0.039461635
0.12698187 -0.1255169 0.011992394 0.29831943 0.10575628 0.011749402 0.29005128 0.20258191
0.08379914 0.15696125 0.100441374 0.0766846 0.0980411 -0.06875206 0.005668386 0.010433492
-0.19671535 -0.1044272 0.09297798 0.020728419 0.066014834 -0.014653202 0.19997445 0.13997969
-0.019981664 -0.05533551 -0.034810252 -0.10941514 -0.048600294 0.18717456 0.28646562 -0.1523609
-0.061360255 -0.010863693 -0.16003929 0.116578415 -0.100328796 0.06220312 -0.031540502 0.0236848
-0.0839225 0.055508263 0.035298593 -0.04524118 0.022316659 0.033975527 0.13628614 0.053690065
0.06497627 -0.14416735 -0.03450579 0.024719207 -0.03954124 -0.034540627 0.100214384 -0.047793016
-0.14578606 -0.09421336 0.22531237 0.09279291 -0.10953664 0.019867875 0.06249501 -0.0037328484
0.03876399 0.0024193022 -0.029257834 -0.0065466766 -0.051565785 0.009398767 -0.09977383 -0.03492888
-0.034921024 0.0499663 0.060197175 0.0051842486 0.019803448 0.021504702 -0.013451382 -0.037150037
0.02234415 -0.07598088 -0.043898173 -0.07849517 -0.019844964 -0.008291897 0.06115209 0.03016398
-0.008261879 0.06012511 -0.075067915 -0.025075424 -0.06832845 0.016527945 -0.033105735 0.010579938
-0.05533684 -0.08276104 -0.031582393 0.012534319 -0.06919073 -0.045629203 -0.0034641111 0.041164234
-0.027629966 -0.057385944 -0.09818606 0.037761576 0.046766937 -0.02359038 0.062688015 -0.02574899
-0.031688917 0.037173722 0.018085178 -0.09254742 -0.022933396 -0.0696328 0.019939091 0.048142243
-0.035832264 -0.06896133 -0.015247541 -0.0515748 0.05467538 0.0035861842 -0.042782493 -0.031409297
0.011594516 -0.05533142 0.020285493 -0.062003642 0.040450532 0.06341053 -0.018536016 0.025975559
-0.06876436 -0.08094313 0.0318716 -0.067221195 -0.0319367 -0.076403044 0.055015907 0.05870269
-0.031456526 -0.014739634 0.01760183 -0.06871333 0.034717593 -0.048336014 0.15260656 -0.043971278
0.027294222 0.015763171 0.06847353 -0.08964485 -0.097822465 0.024012985 -0.021360384 0.025844574
0.0358508 -0.08896938 -0.0112934625 -0.0077690003 -0.03682763 -0.043454293 -0.042365823 0.04072282
0.053320013 0.064493515 0.0636738 0.011380662 0.011267929 -0.047908362 -0.019006325 0.018654272
00000000: 5c74 383e ee26 383e 4d4e a5bc 3046 37be
00000010: abcc 703c 96f2 5cbc 2554 41bd 9da3 a3bd
00000020: a065 253e 75ba ce3d 7630 153d bc24 8cbc
00000030: fafb 36be dea6 a8bd 4f8d 63bd 00b3 243b
00000040: 112a 853d f36a a7bc efdd 40bd a76c a3bd
00000050: 227a 45bd bf7a 75bd d14c 3dbd 7575 96bd
00000060: 810c 623d 5bd9 413d 231e ffbc 1e84 8c3d
00000070: a26f 9abb 88c8 d93d 0ddd 52be 1f68 83bd
00000080: ed15 6bbc 3788 12bd b8f3 683b af75 053e
00000090: ed62 db3d ed0f cd3d 83fd 973d 9534 07be
000000a0: 9547 94bd f5d6 b1bc aed4 00bc dcff 3e3d
000000b0: 0a3f 4c3d 8d78 503e 63ad 633d 0f1b b6bd
000000c0: 0db0 6c3d 8e3a d43d 19f3 ca3d 29f5 f8bd
000000d0: 1116 60bd 81c6 0d3e c57c bb3d 57dd 983b
000000e0: 2afb 8bbd f81b 97bd 3405 a1bc 79ce 47bc
000000f0: c5bd 8c3d 3431 893d 8ff0 de3d d28d da3d
00000100: f6c8 f73d 1bef 9e3c 0003 42be 1ebd 29bd
00000110: 3979 1f3c 1d52 08be ad67 933d b001 8e3d
00000120: e198 273d 0d66 453d 42b3 e1bc 349a 64be
00000130: a49d 09be cb33 bc3c bed2 fcbd 86a2 21bd
00000140: 8907 023e 8187 00be bf7b 443c 53bd 983e
00000150: c096 d83d 9080 403c 9a81 943e a271 4f3e
00000160: e29e ab3d 73ba 203e 35b4 cd3d d10c 9d3d
00000170: c6c9 c83d e1cd 8cbd debd b93b 3df1 2a3c
00000180: c06f 49be eedd d5bd 3d6b be3d a5ce a93c
00000190: c932 873d fc13 70bc 1ac6 4c3e d656 0f3e
000001a0: 96b0 a3bc 7da7 62bd 3295 0ebd 0b15 e0bd
000001b0: 1a11 47bd b0aa 3f3e 9fab 923e 7f04 1cbe
000001c0: e454 7bbd a2fd 31bc 57e1 23be aac0 ee3d
000001d0: 2f79 cdbd b3c8 7e3d 9d30 01bd a006 c23c
000001e0: 8fdf abbd a25c 633d 4295 103d d14e 39bd
000001f0: 6dd1 b63c ec29 0b3d 988e 0b3e 1dea 5b3d
00000200: 4712 853d 9ba0 13be f155 0dbd ef7f ca3c
00000210: fff5 21bd 797a 0dbd 333d cd3d 9cc2 43bd
00000220: f148 15be eff2 c0bd 49b8 663e 360a be3d
00000230: bf54 e0bd f4c1 a23c c5fa 7f3d cea2 74bb
00000240: fdc6 1e3d 288d 1e3b 20ae efbc 8185 d6bb
00000250: a536 53bd 49fd 193c 3956 ccbd 9611 0fbd
00000260: 5909 0fbd 77a9 4c3d 5091 763d a1e0 a93b
00000270: d73a a23c a12a b03c 2f63 5cbc a32a 18bd
00000280: 140b b73c dd9b 9bbd 92ce 33bd 13c2 a0bd
00000290: e891 a2bc bdda 07bc 9d7a 7a3d 731a f73c
000002a0: d55c 07bc bf45 763d 35bd 99bd fa6a cdbc
000002b0: c9ef 8bbd 9d65 873c e199 07bd 7a57 2d3c
000002c0: e2a8 62bd 9f7e a9bd 8a5c 01bd bf5c 4d3c
000002d0: dfb3 8dbd b0e5 3abd 2406 63bb d49b 283d
000002e0: 3d58 e2bc 860d 6bbd c615 c9bd e2ab 1a3d
000002f0: b08e 3f3d 9d40 c1bc 9362 803d 8cef d2bc
00000300: 3dcc 01bd 7943 183d 5e27 943c 8089 bdbd
00000310: d1de bbbc a49b 8ebd 4e57 a33c cd30 453d
00000320: dac4 12bd 993b 8dbd d2d0 79bc 1940 53bd
00000330: 4bf3 5f3d 3006 6b3b b23c 2fbd 09a7 00bd
00000340: edf6 3d3c 33a3 62bd c32d a63c 88f7 7dbd
00000350: 75af 253d 61dd 813d d8d8 97bc b2ca d43c
00000360: 54d4 8cbd 83c5 a5bd cb8b 023d 44ab 89bd
00000370: 0fd0 02bd 3379 9cbd 5c58 613d 3b72 703d
00000380: 8fd8 00bd 817e 71bc b731 903c 93b9 8cbd
00000390: 0934 0e3d fcfb 45bd e544 1c3e 3a1b 34bd
000003a0: 2298 df3c c421 813c da3b 8c3d b897 b7bd
000003b0: 2557 c8bd e1b6 c43c f9fb aebc 00b8 d33c
000003c0: 4ad8 123d 9435 b6bd 3708 39bc 1993 febb
000003d0: 92d8 16bd 21fd 31bd c987 2dbd f9cc 263d
000003e0: 1666 5a3d 2d15 843d 6967 823d f575 3a3c
000003f0: 1f9d 383c 8f3b 44bd 27b3 9bbc d8d0 983c

block2.0.bias f4 [16]
0.041077595 -0.051758245 -0.006927672 -0.0743296 0.03447482 -0.09222396 -0.07101233 -0.014878685
0.051270608 0.01918211 -0.023271171 -0.0033448166 0.065709375 -0.042091843 0.008822448 -0.0026503736
00000000: fb40 283d 7400 54bd 8601 e3bb 1e3a 98bd
00000010: 7835 0d3d eadf bcbd ea6e 91bd bac5 73bc
00000020: 2101 523d cd23 9d3c 2fa3 bebc b634 5bbb
00000030: a392 863d 7f68 2cbd 078c 103c e4b1 2dbb

block3.0.weight f4 [16, 16, 3, 3]
-0.323616 -0.23562193 0.051536307 0.14247687 -0.053744547 0.19799443 -0.05590613 0.13027543
0.031837158 0.05887006 -0.040722113 0.03792477 -0.02003322 0.044970907 -0.04678359 0.0040012226
0.06256948 0.016115947 -0.08499411 -0.0013506539 0.04559761 0.03137945 0.0794379 0.08220284
0.04307703 0.005028729 0.08243266 -0.09993644 -0.11660056 -0.08790704 0.057824437 0.05822676
-0.020968566 -0.007425418 0.068491705 0.09142727 0.07386401 0.034860697 0.00631874 0.016001185
0.010459211 0.06776141 0.011914975 -0.011888745 -0.05748198 -0.26708224 -0.12961003 -0.04610099
-0.16748011 -0.17215922 0.11315845 -0.06881279 -0.015430948 -0.09617804 0.0038272443 -0.090718724
0.06494205 0.07419852 0.07130237 -0.12904005 -0.12511788 0.039833866 0.017111342 -0.061392672
0.079567805 0.0020777048 0.016627412 -0.06959736 0.048447046 0.040123325 -0.046543293 0.094120465
0.03849276 -0.13143569 0.036931492 -0.16481434 -0.2038167 -0.027495408 -0.025445953 -0.03281094
-0.0074485294 0.028794594 -0.20319854 -0.06949303 -0.14412771 -0.1773132 0.050417695 0.00971162
-0.19725198 -0.02229304 0.007925696 0.08767924 -0.035431977 -0.008074153 -0.054442465 0.028153906
0.045238066 -0.033798803 0.06327971 -0.110930935 -0.14667544 -0.004114044 0.063988745 0.11229764
-0.1478025 -0.09946567 0.16910833 0.06403537 0.0563181 0.187661 0.078470774 -0.17665002
0.014381086 -0.048962016 0.05195997 -0.13095708 -0.0659056 -0.05449841 -0.08383286 -0.025278404
0.01454156 -0.07204083 0.058516476 0.02069252 0.08123215 -0.056533057 0.014433919 -0.10651673
-0.026695509 -0.024948783 0.12814549 0.04451985 -0.010670586 0.08178376 0.14372934 0.04763887
0.010932978 -0.039424013 0.05645133 -0.07096815 0.06679986 0.07161876 -0.02594995 0.010344961
-0.20963185 -0.1258444 -0.025553903 0.09965775 -0.12934121 0.10797281 0.063198514 0.003957446
-0.22378072 -0.05509162 0.014751339 0.026228363 -0.06290754 -0.039398972 -0.064239785 0.053780317
0.03752111 0.05071524 0.0751658 -0.08014241 -0.058819328 0.15202455 0.040677924 0.033168152
0.0020064153 0.120251946 -0.20156045 0.088527374 -0.07376751 -0.075690806 0.057705797 0.04927772
-0.14337927 0.0067201476 0.052309588 -0.060097374 -0.015965324 0.061946608 0.04918818 -0.028941162
-0.03553805 0.075792104 -0.02718126 -0.02288819 0.03778055 -0.08248355 0.018305458 0.146524
-0.07210547 -0.025727767 0.09887947 -0.14803134 -0.022485467 -0.0009566026 -0.0073992494 -0.042168964
-0.07076618 -0.0810527 -0.14289975 -0.051564246 -0.2773088 0.009789055 -0.20205584 0.075945504
-0.12104421 -0.04869145 -0.025679024 0.04299542 -0.042463258 0.0227967 0.04723528 -0.018711189
-0.07023434 0.05414739 0.09523617 0.005624292 -0.11870661 0.028823096 0.010427407 -0.07212534
-0.025342908 -0.10730967 -0.07810073 0.17241572 -0.02240064 -0.014750568 -0.12691115 -0.12600887
-0.12307794 0.061118208 -0.060101252 -0.06638189 0.011328998 -0.035836786 -0.051292438 -0.057352398
0.009140679 0.089060836 -0.007250472 -0.08076047 -0.2325682 0.09845368 0.064368874 -0.16972306
0.08194231 0.080947794 0.13574733 -0.22504434 0.15018882 -0.1555273 -0.108316794 -0.018134926
00000000: ffb0 a5be e046 71be bc17 533d 75e5 113e
00000010: 3e23 5cbd 0dbf 4a3e d3fd 64bd ec66 053e
00000020: ae67 023d bb21 713d 3bcc 26bd 0157 1b3d
00000030: b51c a4bc 6a33 383d 26a0 3fbd b01c 833b
00000040: 6d24 803d 9705 843c 6411 aebd 6d08 b1ba
00000050: 8fc4 3a3d bd87 003d 56b0 a23d f659 a83d
00000060: 8a71 303d 09c8 a43b 74d2 a83d 7aab ccbd
00000070: 46cc eebd 9b08 b4bd 51d9 6c3d 2f7f 6e3d
00000080: 45c6 abbc ec50 f3bb 6145 8c3d 383e bb3d
00000090: 0446 973d 17ca 0e3d 6f0d cf3b eb14 833c
000000a0: 1c5d 2b3c 7ec6 8a3d 0737 433c 03c9 42bc
000000b0: 3a72 6bbd 01bf 88be 7eb8 04be 64d4 3cbd
000000c0: e87f 2bbe 824a 30be 9ebf e73d b8ed 8cbd
000000d0: 16d2 7cbc fef8 c4bd 81d2 7a3b bdca b9bd
000000e0: 5600 853d 65f5 973d fa06 923d 1323 04be
000000f0: e71e 00be d628 233d 162d 8c3c e276 7bbd
00000100: 72f4 a23d 1a2a 083b 3636 883c 1089 8ebd
00000110: 6970 463d 5b58 243d 2ea4 3ebd 3bc2 c03d
00000120: 96aa 1d3d 1497 06be 7a45 173d 17c5 28be
00000130: 53b5 50be 0d3e e1bc 0874 d0bc c464 06bd
00000140: cb12 f4bb a4e2 eb3c 4713 50be 5d52 8ebd
00000150: 3796 13be 9791 35be c982 4e3d 7d1d 1f3c
00000160: 6cfc 49be e59f b6bc c7da 013c 2c91 b33d
00000170: 1f21 11bd 7449 04bc 10ff 5ebd 05a3 e63c
00000180: 8d4b 393d 9d70 0abd cb98 813d c22f e3bd
00000190: 1632 16be 1acf 86bb 880c 833d 4efc e53d
000001a0: 8a59 17be a8b4 cbbd bc2a 2d3e fa24 833d
000001b0: cfad 663d 352a 403e 49b5 a03d bee3 34be
000001c0: a69e 6b3c 658c 48bd fad3 543d 9d19 06be
000001d0: 84f9 86bd ba39 5fbd 90b0 abbd a814 cfbc
000001e0: b93f 6e3c 258a 93bd f9ae 6f3d 5c83 a93c
000001f0: 0b5d a63d 358f 67bd 3f7c 6c3c 7125 dabd
00000200: 8ab0 dabc 6461 ccbc 9238 033e 725a 363d
00000210: aed3 2ebc 3e7e a73d c92d 133e fa20 433d
00000220: 3c20 333c 137b 21bd 8339 673d c057 91bd
00000230: 5dce 883d dbac 923d fd94 d4bc e97d 293c
00000240: bba9 56be 5bdd 00be 6b56 d1bc 5d19 cc3d
00000250: 0672 04be d920 dd3d 396e 813d 77ad 813b
00000260: c626 65be c0a7 61bd 9aaf 713c dddc d63c
00000270: abd5 80bd d160 21bd 2690 83bd c048 5c3d
00000280: bcaf 193d c9ba 4f3d 87f0 993d b421 a4bd
00000290: 89ec 70bd 53ac 1b3e e59d 263d 54db 073d
000002a0: 107e 033b a746 f63d dd65 4ebe d74d b53d
000002b0: 6c13 97bd c803 9bbd ea5c 6c3d 6fd7 493d
000002c0: 04d2 12be af34 dc3b 9442 563d aa28 76bd
000002d0: b6c9 82bc babb 7d3d 8c79 493d 0416 edbc
000002e0: 5990 11bd e438 9b3d 3cab debc 0380 bbbc
000002f0: c7bf 1a3d 23ed a8bd 54f5 953c 630a 163e
00000300: 08ac 93bd 0ac3 d2bc 5281 ca3d 8795 17be
00000310: 7133 b8bc 84c4 7aba 6775 f2bb 5db9 2cbd
00000320: dced 90bd f5fe a5bd 5054 12be 0835 53bd
00000330: 6bfb 8dbe 4662 203c bae7 4ebe 5189 9b3d
00000340: 07e6 f7bd b070 47bd d15c d2bc f71b 303d
00000350: f4ed 2dbd 25c0 ba3c c879 413d 3548 99bc
00000360: 06d7 8fbd a7c9 5d3d 2e0b c33d fb4b b83b
00000370: 731c f3bd 6a1e ec3c b7d7 2a3c 73b6 93bd
00000380: ee9b cfbc 2cc5 dbbd 47f3 9fbd bf8d 303e
00000390: 8c81 b7bc 5eac 71bc fff4 01be 7808 01be
000003a0: 4910 fcbd 1657 7a3d bb2c 76bd 3af3 87bd
000003b0: 439d 393c 98c9 12bd 0518 52bd 59ea 6abd
000003c0: c9c2 153c 8765 b63d 5e95 edbb bf65 a5bd
000003d0: 5c26 6ebe 15a2 c93d d4d3 833d e2cb 2dbe
000003e0: 5fd1 a73d f5c7 a53d 5901 0b3e 0672 66be
000003f0: 19cb 193e 8c42 1fbe 32d5 ddbd b28f 94bc

block3.0.bias f4 [16]
0.027728172 -0.008771066 -0.074895196 -0.07556385 -0.13178127 0.053458367 0.056401163 -0.043574404
-0.056023944 -0.10867248 -0.050203614 0.09187851 0.024575088 0.013285267 -0.061615746 -0.061959334
00000000: 3126 e33c 84b4 0fbc a762 99bd 38c1 9abd
00000010: abf1 06be 29f7 5a3d e804 673d 137b 32bd
00000020: 5d79 65bd ad8f debd 4ea2 4dbd cd2a bc3d
00000030: b251 c93c 73aa 593c cb60 7cbd 12c9 7dbd

fc.weight f4 [50, 2560]
-0.0016710113 -0.0040130173 -0.010656259 -0.082962826 0.08687547 0.02601468 0.011043487 -0.0127922855
-0.0108637605 0.014624285 -0.021568142 -0.01216062 -0.052888468 0.0022732415 -0.011070706 0.006590666
0.007849756 -0.009347437 -0.01550109 0.009613379 -0.03968908 0.013373664 -0.034389522 -0.01924597
-0.12107003 0.06376159 -0.03099603 -0.072543524 0.016066613 0.017343888 -0.0046295775 -0.010206712
0.022004725 -0.010968226 -0.0074750036 0.012294758 -0.033235393 -0.054832812 0.010585126 -0.027382858
-0.016087916 -0.023776624 -0.042910703 -0.09748152 -0.08934652 -0.21064255 -0.01565797 0.00022716596
-0.013729746 0.022415755 0.017381985 0.01676858 0.0033724573 0.010457484 0.027038945 -0.005397524
0.009839369 -0.037252728 -0.01163267 -0.033041723 -0.028531022 -0.060017996 -0.04559666 0.09232869
0.014544973 -0.09744832 0.035102613 -0.018731304 -0.01145462 -0.04613454 -0.004583723 -0.02070259
0.012593483 0.0023804617 -0.014235019 -0.0036365062 -0.06234423 0.0064815115 -0.002762692 0.0029467964
0.0004015248 0.022493472 0.04686633 0.056320515 0.009681098 -0.0277551 0.023436667 -0.036941625
0.05192588 -0.035596337 0.005367095 0.020078808 -0.002236794 0.006851025 0.0027131557 -0.07459311
-0.0061236927 0.0268468 -0.019587668 -0.03305945 -0.017190764 -0.021237878 0.0098229805 -0.04118076
0.0018316411 -0.007751768 -0.026557423 -0.039890427 -0.018004023 -0.029698648 -0.023962436 -0.02744268
-0.027544033 0.057644926 0.031050634 0.06857124 -0.0060948054 -0.033087637 0.0101617295 -0.010492756
-0.012101451 -0.003616542 -0.009309257 0.0059560975 -0.009463048 -0.008282169 -0.0044348696 -0.009841788
-0.0032329648 -0.028046492 -0.014889023 -0.01794195 -0.03563239 -0.025227888 -0.01996831 -0.020461455
-0.009578996 -0.020492436 0.0023608601 0.0040245014 -0.006344635 -0.013428696 -0.025883123 -0.0130884
-0.029866127 -0.0008310178 -0.024735691 -0.049017053 -0.025309283 -0.030073937 -0.014111667 -0.027838076
-0.0062876446 0.0073541463 -0.02305845 0.0030523026 -0.011725192 -0.024461564 -0.011944872 -0.042708196
0.010888398 0.008312987 -0.0035917296 -0.10264502 0.018948793 0.1222192 -0.008823809 -0.10149927
0.028929118 0.13870479 -0.026207298 -0.01846632 -0.066910796 -0.0061440077 -0.027892748 0.010813941
-0.008284335 0.025894003 -0.058293946 -0.008406062 0.0036889676 0.1177413 -0.055087917 0.014355664
-0.013632933 0.051070187 0.023628173 0.048857518 -0.04410082 0.05731399 -0.015306263 -0.0022726543
-0.04127385 -0.009197293 0.0073387898 -0.009262903 0.012621255 -0.0054527884 -0.03560946 0.0019864484
-0.013685741 -0.037485357 -0.029198786 0.019861998 -0.068534054 -0.23098865 0.051762793 0.016113842
-0.020694543 0.0026030538 0.016009428 -0.0717059 0.011206664 -0.017687496 -0.009621183 0.015654247
-0.021654975 -0.012423422 -0.09001113 -0.0045070364 -0.0042955424 -0.0064705797 0.019933615 0.14553444
0.1367075 -0.062898025 -0.027906902 -0.07866382 -0.01518836 -0.042723242 -0.002702992 -0.03037788
0.016928809 -0.0068608234 -0.029871525 -0.0010641724 0.004146671 -0.021337578 -0.0024535335 -0.023917075
-0.020377599 -0.12782922 -0.045744706 -0.010274941 0.10817604 -0.027344111 -0.04035405 -0.008356821
-0.110190794 0.009878101 -0.0054038414 -0.022078335 0.0013549713 0.0049150325 0.0443585 -0.020976491
00000000: d605 dbba a17f 83bb 9797 2ebc 6ae8 a9bd
00000010: c4eb b13d bd1c d53c beef 343c bc96 51bc
00000020: eafd 31bc b29a 6f3c acaf b0bc 563d 47bc
00000030: 94a1 58bd aafa 143b e861 35bc 83f6 d73b
00000040: 439c 003c fe25 19bc 49f8 7dbc 6f81 1d3c
00000050: 0491 22bd 361d 5b3c 07dc 0cbd b9a9 9dbc
00000060: 90f3 f7bd 7095 823d 63eb fdbc b391 94bd
00000070: 219e 833c c514 8e3c b6b3 97bb 0e3a 27bc
00000080: 4143 b43c 13b4 33bc e0f0 f4bb f46f 493c
00000090: d621 08bd 5f98 60bd 3c6d 2d3c 0452 e0bc
000000a0: ceca 83bc 32c7 c2bc 22c3 2fbd 64a4 c7bd
000000b0: 4ffb b6bd aeb2 57be 2545 80bc 6633 6e39
000000c0: bbf2 60bc 3fa1 b73c aa64 8e3c 435e 893c
000000d0: 7204 5d3b de55 2b3c c780 dd3c b7dd b0bb
000000e0: 4e35 213c 5196 18bd f496 3ebc c256 07bd
000000f0: e4b9 e9bc 6ed5 75bd 90c3 3abd d316 bd3d
00000100: 0a4e 6e3c fc92 c7bd c2c7 0f3d 6472 99bc
00000110: 29ac 3bbc 92f7 3cbd 0e33 96bb 7a98 a9bc
00000120: e554 4e3c 8501 1c3b ff39 69bc 7352 6ebb
00000130: aa5c 7fbd dc62 d43b 480e 35bb 0a1f 413b
00000140: bf83 d239 3b44 b83c e9f6 3f3d 57b0 663d
00000150: 789d 1e3c aa5e e3bc 41fe bf3c 1a50 17bd
00000160: 3bb0 543d 77cd 11bd 75de af3b 507c a43c
00000170: 2d97 12bb 907e e03b 33cf 313b 46c4 98bd
00000180: 42a9 c8bb d2ed db3c 5176 a0bc 5969 07bd
00000190: a5d3 8cbc 0ffb adbc 91f0 203c 28ad 28bd
000001a0: ad13 f03a 8b02 febb f48e d9bc 2564 23bd
000001b0: 2c7d 93bc 944a f3bc df4c c4bc 79cf e0bc
000001c0: 06a4 e1bc 161d 6c3d e65d fe3c 146f 8c3d
000001d0: efb6 c7bb e786 07bd 627d 263c cfe9 2bbc
000001e0: 2a45 46bc 8203 6dbb db85 18bc 5e2b c33b
000001f0: e60a 1bbc efb1 07bc 6252 91bb 733f 21bc
00000200: 26e0 53bb c2c1 e5bc 17f1 73bc fffa 92bc
00000210: 45f3 11bd b7aa cebc 9594 a3bc c89e a7bc
00000220: 39f1 1cbc c1df a7bc a9b8 1a3b f7df 833b
00000230: a8e6 cfbb 0904 5cbc d808 d4bc ba70 56bc
00000240: cfa9 f4bc a9d8 59ba 81a2 cabc 1bc6 48bd
00000250: 6a55 cfbc 9e5d f6bc 9f34 67bc ad0c e4bc
00000260: 9608 cebb 0dfb f03b 13e5 bcbc 2409 483b
00000270: 051b 40bc 9e63 c8bc 6db4 43bc caee 2ebd
00000280: 4065 323c 3233 083c 3963 6bbb 8d37 d2bd
00000290: 803a 9b3c 0f4e fa3d bd91 10bc d9de cfbd
000002a0: c2fc ec3c a108 0e3e b0b0 d6bc ae46 97bc
000002b0: 8708 89bd ac53 c9bb 557f e4bc f52c 313c
000002c0: 05bb 07bc a91f d43c a2c5 6ebd 94b9 09bc
000002d0: 9bc2 713b 5a22 f13d dea3 61bd 0534 6b3c
000002e0: aa5c 5fbc f92e 513d df8f c13c d21e 483d
000002f0: 10a3 34bd 13c2 6a3d 1fc7 7abc d0f0 14bb
00000300: c50e 29bd 3eb0 16bc 3b7a f03b 6ec3 17bc
00000310: 61c9 4e3c 4ead b2bb 3adb 11bd 132f 023b
00000320: 293a 60bc 3f8a 19bd 4b32 efbc a1b5 a23c
00000330: 955b 8cbd 4a88 6cbe 3905 543d 2d01 843c
00000340: 9a87 a9bc ff97 2a3b 3426 833c 8bda 92bd
00000350: 289c 373c 5ee5 90bc 2ba2 1dbc 563d 803c
00000360: c665 b1bc 9c8b 4bbc c157 b8bd c3af 93bb
00000370: 9fc1 8cbb 2807 d4bb d24b a33c fb06 153e
00000380: 0dfd 0b3e aed0 80bd 049d e4bc 7f1a a1bd
00000390: 99d8 78bc 91fe 2ebd ae24 31bb 08db f8bc
000003a0: 49ae 8a3c c2d0 e0bb 21b5 f4bc b37b 8bba
000003b0: cce0 873b 25cc aebc 76cb 20bb beed c3bc
000003c0: ecee a6bc aae5 02be cd5e 3bbd 3a58 28bc
000003d0: 668b dd3d c200 e0bc 4a4a 25bd 0ceb 08bc
000003e0: b6ab e1bd c2d7 213c b512 b1bb a0dd b4bc
000003f0: 4b99 b13a 480e a13b 42b1 353d e4d6 abbc

fc.bias f4 [50]
-0.057966042 -0.009847369 -0.01737359 -0.021168318 -0.019751085 -0.052310877 -0.042160146 -0.011946827
-0.03478793 -0.04563064 -0.06566264 -0.044460833 -0.014882537 -0.022581708 -0.030763345 -0.015006393
-0.038437422 -0.04745971 -0.034692787 -0.007790522 -0.060345676 -0.04498379 -0.016271114 -0.017980402
-0.051290087 -0.031884514 -0.048320856 -0.041906957 -0.0636775 -0.034102958 -0.069231436 -0.040388618
-0.015637835 -0.030230833 -0.022520846 -0.015815107 -0.037395976 -0.049955934 -0.062405836 -0.050918836
-0.04795479 -0.037469402 -0.051004965 -0.04429518 -0.02765811 -0.025215004 -0.041676123 -0.032862484
-0.05997709 -0.021961642
00000000: cd6d 6dbd dc56 21bc 0f53 8ebc 2e69 adbc
00000010: 07cd a1bc ee43 56bd 1eb0 2cbd a0bc 43bc
00000020: ca7d 0ebd 32e7 3abd 227a 86bd 901c 36bd
00000030: e2d5 73bc 46fd b8bc 6903 fcbc 60dd 75bc
00000040: 8f70 1dbd 1d65 42bd 061a 0ebd a347 ffbb
00000050: 072d 77bd ec40 38bd 004b 85bc a34b 93bc
00000060: 8e15 52bd 5699 02bd 17ec 45bd a1a6 2bbd
00000070: 5969 82bd 8baf 0bbd 36c9 8dbd 896e 25bd
00000080: eb1a 80bc a7a6 f7bc a37d b8bc af8e 81bc
00000090: 862c 19bd 989e 4cbd 439d 7fbd 4590 50bd
000000a0: 3e6c 44bd 8479 19bd 95ea 50bd dd6e 35bd
000000b0: 4393 e2bc b28f cebc 95b4 2abd d09a 06bd
000000c0: 8aaa 75bd e7e8 b3bc
